best_il_model.pt (torch, 29244 bytes, 8 tensors)

weight f4 [64, 4]
000000 63 f3 71 3c c4 00 d7 bc bc 86 0b bd 8b 5f 42 bd
       0.014767501 -0.026245482 -0.03406404 -0.047454398
000010 2a fe 43 bf f5 72 a0 3e b0 ef 54 be 78 95 68 3f
       -0.765597 0.31337705 -0.20794559 0.9085307
000020 25 54 49 3b 08 6e 39 bc f7 a2 2a bd 35 87 37 3c
       0.003072032 -0.011317737 -0.04165932 0.011201669
000030 8f 40 31 3c 66 c2 8a 3c 93 91 8c bc c0 ba 01 bd
       0.010818615 0.0169384 -0.017159259 -0.03167224
000040 de 4a ac be 3d af 83 3d 00 ea a4 bf 4f bf 76 3d
       -0.3365087 0.064299084 -1.2883911 0.06024104
000050 16 54 c4 bc 9a 5e aa bc 04 21 1c 3d 11 72 fd 3b
       -0.023965877 -0.020797063 0.038117424 0.007734545
000060 d1 66 4f 3d 16 0c 1c 3d 90 7d 2b bd 29 90 b7 3c
       0.050635163 0.038097464 -0.041867793 0.022407608
000070 92 e3 71 bd f7 7e 04 bd 43 d2 cb 3c 60 c4 d2 bc
       -0.05905492 -0.032347646 0.024880534 -0.025728405
000080 8d 11 cb 39 19 41 1c 39 36 ff 18 bd f5 69 1d bc
       0.00038732254 0.0001490157 -0.037352763 -0.009607782
000090 80 e2 1a 3c ae 7c db ba 6d b6 82 bc e5 fc c0 bc
       0.009453416 -0.0016745531 -0.015956128 -0.02355809
0000a0 fb 4e 43 3a 42 99 3b bc 5a 80 15 bd ae 36 0a 3d
       0.00074504287 -0.011450114 -0.03649936 0.033743553
0000b0 43 c6 68 3c 62 87 5b 3c 27 8d 56 3c 07 ab fc bb
       0.0142074255 0.013398977 0.013095177 -0.0077108177
0000c0 ac 00 f5 3e 80 5b be 3d 95 ea 2b be 76 b8 c4 3d
       0.47852075 0.09294796 -0.16788705 0.09605496
0000d0 db 0b d4 3c 2b ac 92 3c 70 09 57 bc bd d6 94 3b
       0.02588456 0.017904362 -0.013124809 0.0045422004
0000e0 23 2e d1 3b 96 df 85 3c e6 f4 f8 3b d2 f4 a7 3c
       0.0063836738 0.016341966 0.0075975535 0.020502482
0000f0 74 07 cc 3e 92 f9 41 3f 97 d8 a6 3e f9 c7 a6 3f
       0.39849436 0.7577144 0.3258712 1.3029777
000100 d6 db 95 b9 63 b8 80 3c 5c 1d 5c 3d da a0 30 bc
       -0.00028583285 0.015712922 0.053738937 -0.0107805375
000110 03 90 87 bc 6f a9 83 bc ac 23 81 3b b1 0e 86 bc
       -0.016548162 -0.016072003 0.00394102 -0.016364427
000120 0d 54 b1 bb ea 07 7f 3c 3b 08 b9 3c de 3d 60 bd
       -0.005411631 0.015565852 0.022586932 -0.0547465
000130 a5 25 a0 bb b1 0a d7 3b d4 b1 87 3d 1a 0a 24 bd
       -0.0048873 0.006562554 0.06625715 -0.040048696
000140 ba c8 86 3c 31 81 78 3c e8 d9 0a 3c 25 88 30 3d
       0.016453136 0.01516752 0.008474804 0.043098588
000150 fd ab ad 3b 4c 4b 87 bc 10 87 8d bc 75 8d ba bc
       0.0053000436 -0.016515397 -0.017276317 -0.02277253
000160 cd 8a 8b 3c 87 b7 19 3c 37 1c 18 37 bb 9d fe ba
       0.017033959 0.009382135 9.066475e-06 -0.001942567
000170 4a 20 a6 bb 67 1b b5 bc dc 4b 3c bc ff 7a e7 3c
       -0.005069767 -0.022107793 -0.011492696 0.028256891
000180 a4 21 2a 3c 73 de d5 3c 43 6d 1f 3d 32 24 e9 bc
       0.010383997 0.026107049 0.03892256 -0.028459642
000190 61 2a d3 bb 2e 00 0f 3a dd 03 b2 3c 5d a7 de bc
       -0.006444261 0.0005455044 0.021730358 -0.027179414
0001a0 ae ee 39 3b d0 64 07 ba 38 9e 32 bd 67 13 77 3c
       0.0028371024 -0.00051648635 -0.04360792 0.0150803095
0001b0 62 43 b4 3e 6f af 8e 3e d7 b1 bf 3f c2 65 21 3e
       0.3520766 0.2786822 1.4976147 0.15761474
0001c0 17 4f d2 3b 0e a3 4c bc 86 ac c3 3c 8f 91 0e bd
       0.0064181197 -0.012490047 0.023885977 -0.034806784
0001d0 57 30 89 3c 28 a5 0a bc a2 f6 ca bc 2a 66 16 3d
       0.016746683 -0.008462228 -0.024775807 0.036718525
0001e0 2f 2c a7 bc 59 7d 61 bb 64 24 41 3a a7 bb 6b 3b
       -0.02040681 -0.0034406988 0.00073677883 0.0035970004
0001f0 6a 33 a1 3b a0 cf 05 bc 25 b8 74 3d 62 c2 ab b9
       0.004919459 -0.008167177 0.059745926 -0.00032760488
000200 bd ec 4b 3b 47 2a 8e 3b f5 6f 49 3c 4f 66 79 3d
       0.0031116449 0.004338536 0.012294759 0.060888585
000210 a4 a2 8b 3b 1a 20 8f 3c 63 14 09 3d e6 95 59 bc
       0.0042613316 0.017471362 0.033466708 -0.0132803675
000220 1b 8d 16 3b 21 bb a9 3b 00 b9 87 3c 3a 08 96 3c
       0.002297229 0.005179778 0.016567707 0.01831447
000230 8a a4 40 3c f4 0a 5d 3c c2 bd fa bc 22 db 34 bc
       0.011757979 0.013491381 -0.030608062 -0.011038573
000240 04 e7 3b bb f7 e8 f1 bb b6 b1 86 bd 77 94 42 3c
       -0.0028671632 -0.007382508 -0.065768644 0.011876217
000250 71 2f 21 3d fc 95 85 3c 7a ea 64 bc 2b d4 94 3c
       0.039351884 0.01630687 -0.013971919 0.018167576
000260 b0 e1 e7 3a 9a 98 0c bb 06 b6 07 bd ea eb a8 3a
       0.0017691161 -0.0021453262 -0.033132575 0.0012887691
000270 08 b5 54 3c b0 f6 89 bb c8 cd 34 3c bc a1 b9 bb
       0.012982614 -0.0042103156 0.01103539 -0.005665032
000280 bb 58 8d 3b 64 e8 d0 bb 35 37 07 bd 5e 03 34 3c
       0.004313556 -0.0063753594 -0.033011634 0.010987131
000290 74 32 dd 3c 47 62 9b 3c af e8 2d bc 8c a3 18 3c
       0.027001597 0.01896776 -0.010614558 0.009316336
0002a0 c6 03 b5 bb 42 fa 41 bc 28 b5 87 3b b9 8f 0a 3d
       -0.0055241315 -0.011839451 0.0041414686 0.03382847
0002b0 6c 6f 0d 3c 23 18 85 3c 62 7e 28 bc a0 4b 3f 3d
       0.008632522 0.01624686 -0.010284038 0.04670298
0002c0 e6 ff ad 3b 21 07 d8 3c a9 f7 cd 3c 3b cd 45 bc
       0.0053100465 0.026370587 0.025142508 -0.012072857
0002d0 41 48 4f 3a 41 85 bd bc 67 5e be bc d0 76 4a 3d
       0.000790719 -0.02313483 -0.023238374 0.049429715
0002e0 bd fd d9 ba ab 82 00 bc 55 cd 35 bd dc 11 24 3a
       -0.0016631406 -0.007843654 -0.044385273 0.0006258765
0002f0 a9 f9 29 3c 75 7b 32 bc 43 7f 03 bd 13 5f 6f 3d
       0.010374465 -0.010893692 -0.032103788 0.05844028
000300 75 05 80 3b dd a4 83 3c 21 8a ba 3c b1 b7 83 3c
       0.0039069005 0.016069824 0.022770943 0.016078802
000310 75 f7 80 bb 40 e0 2e 3c 20 4d b5 3c 6e 09 d5 3c
       -0.003935749 0.010673583 0.022131503 0.026005473
000320 6d 3e 01 3b 8e 10 2e 3c b3 4b 54 3d 16 4f 19 bc
       0.0019721047 0.010624064 0.051830005 -0.009357234
000330 b2 3d a1 bb e9 a5 3c bb 44 3a 8d 3d c6 32 02 bd
       -0.0049206847 -0.0028785414 0.06895879 -0.031786703
000340 6d 47 67 bc 6f b3 a5 3c f2 cc 4e 3d 99 64 41 bd
       -0.01411615 0.020227162 0.05048842 -0.047215078
000350 bd 1a b1 bc 37 ab f0 bc 8d 58 bd 3c da b4 b1 3b
       -0.021619195 -0.029378517 0.023113513 0.0054231705
000360 47 39 ec ba 6a cc cc 3c 39 00 63 bc c7 ec d7 bb
       -0.0018022441 0.024999816 -0.013855034 -0.0065895054
000370 96 ec fd 3d 5a 41 1c be 5c 09 4c 3f aa 6b 2b 3f
       0.12398641 -0.15259305 0.7970178 0.6696116
000380 b9 42 82 3c 36 24 5d bc 6a 06 1f 3d 6f da 39 3c
       0.015900956 -0.013497403 0.038824476 0.0113435825
000390 39 22 9d 3c b6 d9 d4 3c 48 4b 83 bc 06 f7 3d 3a
       0.019181358 0.025982719 -0.016027108 0.0007246587
0003a0 05 76 70 bb 0a 42 86 3c 24 13 7e bc 1d e0 3c 3c
       -0.003669144 0.016388912 -0.015507493 0.011528042
0003b0 c2 f0 1d 3b ce 89 20 3c 3f 13 76 3c 54 fd cb bc
       0.0024099802 0.00979848 0.015019237 -0.02490107
0003c0 ba 17 9f bc 53 83 05 ba 8a 00 fb bb 95 4f 78 bb
       -0.019420493 -0.0005093116 -0.0076599764 -0.0037889231
0003d0 60 c3 99 bb 87 1f b9 bc b7 86 09 3c ed ce 2c 3d
       -0.00469248 -0.022598041 0.008393935 0.042189527
0003e0 2c ea 99 3c 6a 7a dc 3b b5 8f 4c bd 03 79 1a 3d
       0.01878842 0.00672846 -0.049941737 0.037713062
0003f0 36 42 43 bf 40 03 48 be 71 cc 9a bc b4 82 1f bf
       -0.76272905 -0.1953249 -0.018896313 -0.6230881

bias f4 [64]
000000 d9 c2 88 3c e8 99 4a be 61 13 0a 3c 12 52 ae bb
       0.016694473 -0.19785273 0.008427472 -0.005319842
000010 55 f8 61 be 47 1e cf bb 6c 25 86 3c 55 4e 8d bc
       -0.22067387 -0.006320748 0.016375266 -0.017249266
000020 6e b4 8e 3b 80 1b 8a 3b 46 3a fa 3b 4d 8b 43 ba
       0.004355005 0.004214704 0.0076363413 -0.0007459417
000030 6d 1e 75 bd f2 73 d8 3b 40 09 bf ba ee 50 1e 3e
       -0.05984347 0.0066056186 -0.00145749 0.1546056
000040 1d b6 08 bc 24 c3 66 bb 9c 90 88 bc 15 d3 3b bc
       -0.0083442 -0.0035211528 -0.016670518 -0.0114639
000050 9e a2 ec 3b 00 3f d1 3b 19 d5 21 3b 9b 27 f6 3b
       0.007221534 0.006385684 0.0024693666 0.0075120456
000060 ac 20 16 bc 86 a3 34 bc 36 ab 2b 3c 03 46 24 be
       -0.009163063 -0.011025315 0.010477832 -0.16042332
000070 43 67 96 3a 37 13 66 3c 14 72 88 bb 58 2f 56 bb
       0.0011474866 0.014042667 -0.00416399 -0.0032682028
000080 1b fd 84 3b 34 57 31 bb 1b 6d 25 3a b2 5f 45 3b
       0.004058493 -0.0027060034 0.00063105085 0.0030116853
000090 36 9b 17 3c 34 33 e7 3b 40 79 f7 3b 2b 9b 72 3b
       0.009253314 0.0070556644 0.007552296 0.0037018757
0000a0 5f fd 09 3c 62 f9 ef 3b bf ac f8 3b 8f b5 ba 3b
       0.008422225 0.00732343 0.0075889523 0.005697913
0000b0 a5 2f be bb 2d 1d 64 3c 02 9e d9 3b 62 5c 80 3c
       -0.0058040195 0.013922972 0.0066411505 0.015669052
0000c0 81 f2 5c bb 25 5a 21 bb d7 8d d7 bb 46 0b 41 bc
       -0.003371388 -0.002462038 -0.006578188 -0.011782473
0000d0 c0 d8 1e bc fb 95 30 3a ce 50 a8 bb 43 ae 6a 3d
       -0.009695232 0.0006736216 -0.005136586 0.057295095
0000e0 8f ca e5 3b 1d 8c 3a 3a 0f aa 04 bc d2 2d 02 bc
       0.0070126723 0.00071162154 -0.008097186 -0.007945495
0000f0 d5 18 e0 bb e7 0d 02 3c 25 92 1e 3c 80 73 94 3b
       -0.0068388977 0.007937885 0.009678398 0.0045303702

weight f4 [32, 64]
000000 2b 4b 99 bd eb 71 68 3b 09 28 3e 3e 8d 82 ce bd
       -0.0748504 0.003546829 0.1856996 -0.10083494
000010 69 f0 59 bd 30 ef 56 3d 0c ec a1 3d 30 18 1a bd
       -0.05320779 0.0524742 0.079063505 -0.037620723
000020 31 4b 0d 3e 2c ad ce 3d dc d6 b4 3d 34 04 4d bb
       0.13798214 0.10091624 0.08830044 -0.0031283023
000030 27 db 36 bd dc 15 7f 3c 24 6a b6 bd 24 27 0d 3d
       -0.044642594 0.0155691765 -0.089069635 0.034461156
000040 de 64 e3 bd 9f 10 96 bd 32 e7 20 bd 4f d7 1c bd
       -0.11103223 -0.07327389 -0.039282985 -0.03829127
000050 8d 4f ab bd 4d 49 00 3e 23 58 3a bd cf 1a a2 bc
       -0.083647825 0.12527962 -0.04549421 -0.019788174
000060 a8 61 f5 bd 1a e0 af 3c 53 b1 dd 3c 4a 1f 77 3c
       -0.11981517 0.021469165 0.027062094 0.0150831435
000070 6e 28 07 be 88 fe fe 3d 0e e8 89 bd cc 49 e2 3c
       -0.13199016 0.12450892 -0.06733714 0.02762308
000080 8e f6 6a 3d 9f d4 8d bc df ab 22 bd 5d 9e 34 3c
       0.05736404 -0.0173133 -0.03971469 0.011024085
000090 b8 dc 05 3e ae f4 cf 3d cc 10 cf 3d d1 9f 11 3d
       0.13072479 0.10154091 0.101106256 0.035552803
0000a0 15 06 b6 3c 55 98 ad 3c 90 09 36 3e 45 38 a0 bd
       0.022219697 0.021190802 0.17777085 -0.078232326
0000b0 87 11 90 bd 61 54 29 bd 8c 5a 0f 3e 6b 26 f7 3d
       -0.07034593 -0.041340236 0.13999385 0.120678745
0000c0 4a 00 a9 3b 97 3d 16 be e8 e6 82 bd 66 c2 f7 bd
       0.005157505 -0.14671932 -0.06391698 -0.120976254
0000d0 70 82 8d bd bf 0a a4 3d a3 d4 6f bd af 6c 85 3d
       -0.069096446 0.08009862 -0.058552396 0.065148704
0000e0 05 90 61 3b 56 dd 90 bc a0 92 39 be 6e d0 e4 3c
       0.0034418118 -0.017683666 -0.18122339 0.027931418
0000f0 49 50 2a be dc 15 ac 3c 86 ad 6a 3c 28 02 05 3d
       -0.16632189 0.021006517 0.014323598 0.03247276
000100 36 2a d6 3d 8d bc a6 3c a0 f7 9f 3c 3d 2a d2 bb
       0.1045727 0.02035358 0.019527256 -0.0064137266
000110 7d e3 7e 3d 40 68 3c 3d 01 ab 1b bd 5a d6 dc bc
       0.06222867 0.045997858 -0.03800488 -0.02695768
000120 5b fe df bc 21 29 2c bd 56 1b 65 bd 48 7b ad 3d
       -0.027342966 -0.04203141 -0.055934273 0.0847078
000130 ef 24 b7 3a 41 a3 a3 3c 00 fe f0 3b f8 1b a4 bc
       0.0013972799 0.019975306 0.007354498 -0.020032868
000140 33 80 24 bd 69 88 d4 3c 2c 23 5a 3d d1 49 88 bd
       -0.040161323 0.025943952 0.0532562 -0.06654704
000150 a0 77 0c be 69 26 c7 3d 6c d3 1a 3c f0 2c 0f 3d
       -0.13717508 0.09724123 0.009449821 0.034954965
000160 43 ff 7f 3d 10 4d e0 bb a6 82 04 3d f2 18 87 3d
       0.062499296 -0.006845124 0.03235116 0.06596555
000170 94 33 0c bd c1 9c d6 bd e5 e0 2e bd d2 d9 a3 bd
       -0.034228876 -0.10479117 -0.042694945 -0.0800053
000180 d6 98 46 bd d6 41 a9 3d 3a d1 01 3d f7 cd 06 3d
       -0.0484856 0.0826451 0.031693675 0.032911267
000190 98 88 3a 3c 83 56 9f 3d 3f c4 81 3d 81 e1 1c 3d
       0.011385106 0.07780173 0.06336259 0.038300995
0001a0 d1 bb 36 bc c6 09 e8 3b 91 e1 12 be 0e 48 d9 bd
       -0.011153177 0.007081243 -0.1434386 -0.106094465
0001b0 69 09 11 3d 20 39 a2 3d 81 16 73 3d 6f f3 c5 bd
       0.035409365 0.07921052 0.059347633 -0.09665572
0001c0 5d eb 1b bd 25 57 9a bc 20 96 27 be 15 67 34 bd
       -0.038066257 -0.018840382 -0.16365862 -0.04404362
0001d0 b6 a2 0c bd c7 c4 9c bd a3 bb a6 3d 26 89 f9 3b
       -0.03433486 -0.0765472 0.081412576 0.0076152263
0001e0 65 1e ae 3d 85 a5 29 3d 1d 2d 9c 3d 57 d7 55 bd
       0.08501891 0.041417617 0.07625792 -0.052207317
0001f0 51 b9 39 3e bb a1 f0 3c 98 21 eb 3c ba cf a0 3a
       0.18137099 0.029373994 0.028702542 0.0012268939
000200 59 af 1b bd fa 7c 91 3e 62 49 f6 3b 73 dc 63 3c
       -0.03800902 0.28415662 0.007516072 0.01390754
000210 43 fc 21 3e 79 24 a0 bd 45 86 5d 3d 9d 0d c3 3c
       0.15818886 -0.078194566 0.054083128 0.023810202
000220 1e 28 29 3d 65 b2 c9 3a 79 e1 fc 3b 01 ee 55 3c
       0.041298024 0.0015388249 0.007717308 0.013057233
000230 f9 2a 4a 3f 91 99 29 3d 53 bb 23 3d 11 0f c4 bb
       0.7897182 0.041406218 0.03997357 -0.0059832414
000240 b5 c6 21 3d 74 3b ad 3c b4 7d 14 bc 71 30 4c 3d
       0.039496142 0.021146514 -0.009063173 0.049850885
000250 a0 a0 af bd fe 79 1c bd 20 d6 ea 3c 52 41 f1 bc
       -0.08575559 -0.03820228 0.028666556 -0.029450092
000260 11 f8 93 3c 75 9d 41 3d 72 b8 d9 3b 24 32 1c bf
       0.018062623 0.047269303 0.006644302 -0.6101401
000270 cb e0 43 39 4e 1b 0d bd c3 d4 57 bd 24 e0 81 bd
       0.00018680391 -0.034449868 -0.05269314 -0.063415796
000280 d8 70 06 bd d7 ff b8 3d 7c 60 cd bd bd f4 83 3d
       -0.03282246 0.090331726 -0.100281686 0.064431645
000290 ca 19 bb 3b 09 ec 25 3c ee d6 66 3d b8 33 8a 3d
       0.0057098614 0.010127076 0.056357317 0.06748146
0002a0 e7 d1 29 bd d0 bb 1c 3d cb 4c 47 3d 6e 86 32 bd
       -0.041459944 0.03826505 0.04865722 -0.043585233
0002b0 5a 73 4f bc c7 da e0 3c 45 6a cf 3c b7 52 cd bc
       -0.012661779 0.027448071 0.025319228 -0.025063856
0002c0 aa da d1 bc 81 d7 76 bc 56 96 f0 3c 93 60 3f 3d
       -0.025616962 -0.015066029 0.02936856 0.04672296
0002d0 2a e4 2d 3d 98 96 4b bc e9 4b b3 bd ee 7a 8e be
       0.042453922 -0.012426041 -0.08754713 -0.27828163
0002e0 0e ff 6b 3d b1 ac 91 bc 2e d2 6f bd d4 af be 3b
       0.057616286 -0.017782541 -0.058550052 0.0058193
0002f0 6b d6 44 bd c9 8e 71 bd 10 14 45 bd 9b cd 47 bf
       -0.048056047 -0.05897406 -0.048114836 -0.78048104
000300 d0 a9 80 3d ff 31 9e 3d 4c 00 5a 3d 72 5a 2d 3d
       0.06282389 0.0772438 0.05322294 0.042322583
000310 f7 68 7b 3d 30 7b df bb d5 ae ee bc 70 45 a7 bc
       0.0613794 -0.006820105 -0.0291361 -0.020418853
000320 7a cf cd 3a 1d f1 06 3c 8f 21 33 3d 19 b5 0e 3e
       0.0015702092 0.008236197 0.043733176 0.13936271
000330 15 ff 20 3d 96 47 07 bc d1 f4 fe bc fc 91 ec bc
       0.039305765 -0.0082568135 -0.031122597 -0.028878205
000340 d1 d7 ea bc f3 31 be bc 24 c1 49 bd 10 8c 8a 3d
       -0.028667362 -0.023217177 -0.04925646 0.06764996
000350 44 2f f8 bd 5c 4c 9f 3c cb e0 fa 3c 3a b5 9b bc
       -0.1211839 0.01944559 0.030624768 -0.019007314
000360 5d 72 10 bd 8f e2 b0 bd c2 52 01 3d f2 e3 a8 3d
       -0.035265315 -0.086369626 0.031573065 0.08246602
000370 07 7e 17 3d 8d 17 b9 bd b9 c8 cc bd 9a e4 7e 3b
       0.036985423 -0.09037695 -0.09999222 0.0038893581
000380 c2 ca a6 bc c2 e1 23 3e 29 21 bd 36 72 55 ca 3d
       -0.020360354 0.16004089 5.6364993e-06 0.09879579
000390 ee b0 95 3d 16 0e 7b 3d 42 d0 9d 3d dc f4 c0 3d
       0.07309137 0.06129273 0.07705738 0.09421703
0003a0 05 f6 cc bb ba a5 9a 3d ec 97 4f bd 71 42 e9 bd
       -0.0062549138 0.07551141 -0.050681993 -0.11389626
0003b0 81 6a 4a 3d b1 dd 9f 3d 47 88 85 3d 9f 85 ae bb
       0.049417976 0.07805956 0.065201335 -0.0053259875
0003c0 cd b4 0e bd 41 56 79 bc 5e 3b f4 bd d8 44 77 bd
       -0.034840394 -0.015218318 -0.11925386 -0.06036839
0003d0 67 2a d2 3d 4d 1d 8b 3c 89 c6 6e bd 21 ca 08 bc
       0.10261994 0.016981745 -0.058294807 -0.008348973
0003e0 1b e5 77 3c 01 22 e8 3b 6e 9f 04 bc 8d c9 89 bc
       0.015130307 0.0070841317 -0.008094652 -0.01681974
0003f0 2d 58 8e bd 9b 90 3b bd c9 c5 0d be ce 64 38 bd
       -0.06950412 -0.045792203 -0.1384498 -0.04501801

bias f4 [32]
000000 98 c1 db bc 6f e9 04 bd 68 e0 03 be a3 38 77 3b
       -0.026825711 -0.032449182 -0.12878573 0.0037722967
000010 e3 73 6a bc ad 39 a6 bc 63 07 57 bd 22 a5 72 3b
       -0.014309856 -0.020291174 -0.05249728 0.0037024696
000020 90 25 07 bd ad 16 61 bd 37 25 f3 3c 70 1e 4a bd
       -0.032994807 -0.054953266 0.029680831 -0.049345434
000030 10 ef 88 3c 2d 3f 2a 3d d6 98 2b bd 8d ce c5 bc
       0.016715556 0.041564155 -0.041893803 -0.024146343
000040 18 e4 8a bd 4e a8 5c 3d 09 bf 6d 3c 23 cb 48 bd
       -0.06781787 0.053871445 0.014510878 -0.04902185
000050 1d 52 84 bd ac d8 6c be b2 73 73 bd 76 c8 65 3c
       -0.06460974 -0.23129529 -0.059436508 0.014024844
000060 7e be fb bd f7 e9 65 bd 66 83 b8 bc 49 35 dd be
       -0.12292193 -0.05613133 -0.022523593 -0.43204716
000070 d5 0f e5 bc 99 cf 40 bd a0 50 6f bd a6 f1 77 bd
       -0.02796165 -0.04707298 -0.0584265 -0.06053319

weight f4 [16, 32]
000000 2b 89 c0 bd d6 27 6a 3b 18 4a 0f 3d 12 ff 7d bd
       -0.09401163 0.003572931 0.03498277 -0.062010832
000010 25 71 40 3d f9 4e 86 bb 59 e1 aa 3d d0 53 a0 3c
       0.046982903 -0.0040987697 0.08343763 0.019571215
000020 80 70 9c 3b 29 e4 48 bc 01 92 18 be 99 6f 9c 3c
       0.004774153 -0.012261429 -0.14899446 0.019096183
000030 8c ac b6 bd 8e 5b 6f bd c4 fc 1f 3e 4f ae b0 3d
       -0.089196295 -0.058436923 0.15623766 0.08626997
000040 9b 3c 44 3d 51 14 90 bd d9 74 18 bc 22 06 27 bd
       0.04790936 -0.07035125 -0.009305202 -0.040777333
000050 9d d6 c5 3d 42 96 29 bd 94 72 87 3d 2d 61 29 3d
       0.09660075 -0.041403063 0.06613651 0.04135244
000060 a7 6d ad 3d 3b e8 5f 3d 7d 94 ad 3a 5a 49 8e 3c
       0.0846818 0.05466483 0.0013243105 0.017368961
000070 b0 a4 6c 3d dd a9 42 3d 54 ee 4a 3c 8f d6 82 3d
       0.057774246 0.047525275 0.012385923 0.0638858
000080 b7 ae 0d 3d bf 04 cd 3d 9e e8 a5 bd 65 8e 45 3d
       0.03459045 0.10010671 -0.08101009 0.0482315
000090 79 fd 96 3d 8e 61 74 3c 4a ff c6 3b 86 64 b7 bd
       0.07372565 0.014915837 0.0060729133 -0.0895472
0000a0 fb a9 c1 3d 0f 60 89 3c 0d ae 43 bd 01 f1 60 3d
       0.09456249 0.016769437 -0.04777341 0.05491734
0000b0 94 5d 26 bb 49 b6 7c ba 21 f3 94 3c 48 3c f0 3d
       -0.0025385367 -0.00096402 0.01818234 0.11730248
0000c0 40 a3 be 3c 1b e6 44 bc 2c 13 67 bc f0 1f 2b 3d
       0.023271203 -0.012017752 -0.014103692 0.041778505
0000d0 9a 2c 43 bb e5 a8 25 bd e9 5a bd bc 18 1e 77 bd
       -0.0029781223 -0.040444274 -0.023114638 -0.060331434
0000e0 4a 83 87 3d af 2c bc bc c6 c8 51 bc 6a c7 de bd
       0.06616838 -0.022970526 -0.012804216 -0.10877879
0000f0 db 9b d0 3d 29 e0 65 3d e2 4e 14 3d 20 79 cc bb
       0.10185977 0.05612198 0.03620804 -0.006240025
000100 ae 8f e8 bd 99 3d 9b bd c0 63 a3 bd 99 0a a2 3c
       -0.1135553 -0.07580108 -0.0797801 0.019780444
000110 b2 6d de bc 2e 76 bb bc 36 09 e6 bb 32 ef 52 3d
       -0.027151916 -0.0228835 -0.007020141 0.051497646
000120 41 4c 00 3d 69 83 63 bc d6 10 9a 3d 9a 50 37 bd
       0.03132272 -0.013886311 0.075227425 -0.044754602
000130 31 9d 3e bd b8 80 a7 3c 88 8d 4f 3d 9b 4c c8 bd
       -0.04653663 0.02044712 0.050672084 -0.09780236
000140 73 01 5a bc ff 50 1e 3e 03 3d 7e bb 21 55 a7 3c
       -0.01330601 0.15460585 -0.003879369 0.020426335
000150 2f bb ee bc a0 6d f4 3b a9 97 07 bd 41 de c1 bd
       -0.02914199 0.0074593574 -0.03310362 -0.0946622
000160 da 6d 73 bd b0 81 a8 bd 54 54 ea bb 16 c8 81 bd
       -0.059430934 -0.08227861 -0.007151166 -0.063369915
000170 2d c3 64 3d 1d 08 5c 3c 5e 19 f8 bc 40 cd 0b bc
       0.055850197 0.013429669 -0.030285534 -0.008532822
000180 54 99 82 3d 13 30 46 3e 73 39 b5 bd e7 4d 12 3d
       0.06376901 0.19354276 -0.08848848 0.035718825
000190 a3 21 0d 3e 94 8d a7 3d 0b 58 09 3d 23 27 01 be
       0.13782363 0.08181301 0.03353123 -0.12612586
0001a0 d8 74 e0 3c 10 0f 61 3d 80 f5 cd bd 90 68 2b 3d
       0.027399465 0.054946005 -0.10056591 0.041847765
0001b0 3a 50 9d bd 6d 9b e7 bd 20 89 82 bd 64 1d 73 3c
       -0.076813176 -0.11308942 -0.06373811 0.01483855
0001c0 ea fa 9f 3b 84 de 00 3e de d3 9e bc 59 da 0e 3d
       0.004882206 0.12584883 -0.019388136 0.0348762
0001d0 4c f2 23 bd 12 8c 47 bd 9a c0 8c 3d 1a 85 a6 bd
       -0.040025994 -0.048717566 0.06872673 -0.08130856
0001e0 80 79 1a bc 0a 04 2d 3c f1 1c 26 bd d7 6f c7 bd
       -0.009428382 0.010560045 -0.040554944 -0.09738129
0001f0 10 78 c4 bc d7 b1 8c 3d 41 88 99 3c f0 49 c9 3d
       -0.023983032 0.06869858 0.018741729 0.098285556
000200 a6 bd be 3c 03 ec 3a bd 64 e4 91 3d a7 9c 44 bd
       0.02328379 -0.045635235 0.0712364 -0.048000958
000210 b4 65 90 bd b3 b9 b3 3c 97 f2 ed bb e4 db 9d 3d
       -0.07050648 0.021939134 -0.007261585 0.077079564
000220 4e ed 23 3d 02 02 f4 bd 27 4b 27 3c 46 1d d9 3d
       0.040021233 -0.119144455 0.010210789 0.106012866
000230 33 a4 a8 bc 96 f2 3b bd 06 ab 6c 3d 6b 15 4c 3c
       -0.020586109 -0.045885645 0.05778029 0.012456278
000240 5e 45 ca bd 68 18 aa bd d4 b8 f4 3a 77 89 30 bc
       -0.09876512 -0.083054364 0.0018670806 -0.010774962
000250 e7 a1 ce bd 27 80 fd 3c a3 27 97 bd bc 30 96 3d
       -0.10089474 0.030944897 -0.07380607 0.07333514
000260 6f fc b0 bd 12 27 9f bd 2c a0 04 bd c4 02 60 3a
       -0.08641898 -0.07771124 -0.032379314 0.0008545334
000270 18 3a d2 3c f5 07 b2 3d 97 4e e2 bc ac d3 3d 3c
       0.025662467 0.08692924 -0.027625365 0.011586111
000280 d7 cd 44 3c 9a 87 e9 3c 5d f8 0b be c3 50 37 3c
       0.012011967 0.028507043 -0.13668962 0.011188689
000290 cd e8 86 3c cb b9 3d 3c 64 34 83 3c 43 84 3f bc
       0.01646843 0.011579941 0.016016193 -0.0116892485
0002a0 3c 51 2c 3c b0 55 ad 3a dd 13 83 bc 81 2c 3b 3c
       0.010517415 0.0013224389 -0.016000682 0.011424185
0002b0 7a ae a3 3a a7 22 39 bc ce 58 8c 3c fc 31 4a 3c
       0.0012487911 -0.011299766 0.01713219 0.012341019
0002c0 09 74 7d 3b a8 60 d8 bc 35 f5 6a bf 04 5b 37 bd
       0.0038673899 -0.026413277 -0.91780406 -0.044764534
0002d0 ff fe 5a 3c b0 bb 8d be 3f 9f 27 3c 50 cd 8a bb
       0.01336646 -0.27682257 0.010230838 -0.004235901
0002e0 69 0f 86 3c 6a 06 f3 3a d1 0b 9e 3c e4 32 a8 3e
       0.01636477 0.001854134 0.019292744 0.32851326
0002f0 f7 c1 5f 3c e6 3c 5a 3c 6d 89 42 3c ef 12 9d 3c
       0.013657085 0.013320183 0.011873585 0.019174067
000300 a9 e4 42 3c 5c f8 2d 3b fc 9b 6b 3d 2d 48 ad 3c
       0.011895337 0.0026545739 0.057521805 0.02115258
000310 29 1b c6 bd d2 1c b6 bd 7e e1 6b 3d 9b 1f c6 3c
       -0.09673149 -0.08892216 0.057588093 0.024184993
000320 c6 37 e7 bc 7c 7a 14 3d 55 58 59 3c 7e 89 6a 3c
       -0.028224837 0.036249623 0.013265689 0.014315007
000330 40 b1 2a 3d 7c db 09 bd 54 b7 f6 bb 09 70 bb 3c
       0.041672945 -0.033656582 -0.0075291786 0.022880571
000340 a5 0c e0 3c 9f d7 33 be 35 46 82 bb 7b 65 d3 bd
       0.02734978 -0.17562722 -0.0039756545 -0.1032209
000350 52 b5 3c bd 75 12 ba 3d ec 20 22 bd dc 62 50 3c
       -0.046071358 0.09085552 -0.039582178 0.012718882
000360 3f 6f 19 3e 4e c3 29 bc b9 27 24 bd fa b7 1b 3e
       0.14983843 -0.010361506 -0.040076945 0.152069
000370 3b e3 22 3d fd d0 c5 3c 5b fd a2 3d 01 4f f2 3b
       0.039767485 0.024147505 0.0795848 0.007394672
000380 cf e4 54 3d f5 49 d4 bd 2f 20 3f bd dc 5a a9 3b
       0.05197602 -0.10365669 -0.046661552 0.005168302
000390 eb 1e a7 bc 11 a2 8f 3d 23 19 a8 bd a7 d8 08 3d
       -0.020400485 0.070133336 -0.082079194 0.03340974
0003a0 09 39 28 3d 1c d7 cc 3b 3d 39 90 3d 82 68 0b bd
       0.041070018 0.006251229 0.07042167 -0.034035213
0003b0 b5 b2 b4 bd 01 74 61 3d b2 87 6a bd 80 53 d3 bc
       -0.08823148 0.05504227 -0.057258315 -0.025796652
0003c0 86 74 a4 39 8f 68 c5 b9 21 54 ef bc 36 4f b0 3d
       0.00031367334 -0.0003765267 -0.02921492 0.08608858
0003d0 18 01 b9 bd 95 13 31 3b 82 79 18 bd af 3d 8f bc
       -0.09033412 0.0027019728 -0.037225254 -0.017485468
0003e0 f1 cb 8c bd 38 fd 69 bd ef db 43 3d 99 89 0d bd
       -0.06874836 -0.057126254 0.047817167 -0.03455505
0003f0 26 90 e0 3b f2 79 49 bd 36 21 b9 bc 1f 39 1f 3d
       0.0068531213 -0.04918856 -0.022598844 0.038872834

bias f4 [16]
000000 2e 50 aa 3c f5 ff a8 bc fe d3 86 bd d4 03 f7 bc
       0.020790186 -0.020629862 -0.06583403 -0.030153193
000010 bc ef 13 3d fa 66 4f bd 21 18 8a 3d ee 38 a8 3c
       0.0361173 -0.050635315 0.067428835 0.020534959
000020 c1 7a 1f 3b 02 76 cd 3b 27 39 70 bd c9 59 99 3c
       0.0024334642 0.006270171 -0.058648255 0.01871957
000030 d4 0b 10 bf 0c 2b ee 3c f1 80 0f bd c9 4a 10 bf
       -0.5626805 0.02907326 -0.035035077 -0.56364113

weight f4 [2, 16]
000000 0b 3b 7c bc 60 c4 5a 3c 37 78 31 bb 18 5c bf 3b
       -0.015394936 0.0133524835 -0.002707971 0.005839836
000010 f3 da 5a 3c 33 90 c7 3e f2 1e 05 bc 65 4d d1 3b
       0.013357866 0.38977203 -0.008125054 0.0063874
000020 2b d8 0e 3c 92 05 ab 3c 10 85 c6 bb 49 7d e7 bb
       0.008718531 0.02087668 -0.0060583428 -0.0070644957
000030 32 92 ed 3d 23 b7 ad 3b 11 4e 8f bc 10 2c a6 be
       0.1160015 0.0053013726 -0.01749328 -0.32455492
000040 e5 a4 d0 ba a8 3f 4a 3b 23 f8 48 bc 04 86 cc 39
       -0.0015918283 0.0030860696 -0.012266192 0.00039009762
000050 d8 24 d2 3b 31 f1 f0 be 0d bd 26 3c d8 e0 a2 3b
       0.0064130835 -0.47059014 0.010176909 0.004970651
000060 ca ec f7 3a 90 8c b3 bb cc a6 da 3a 69 9a ec 3b
       0.0018915173 -0.005479403 0.001668179 0.0072205556
000070 13 04 86 3e 5c cd 32 bb dc d6 a6 3b ea 40 c5 bd
       0.26174983 -0.0027283048 0.005091531 -0.09631522

bias f4 [2]
000000 62 1e e3 bd f4 94 09 3d
       -0.110897794 0.03358932
