best_il_model.pt (torch, 29244 bytes, 8 tensors)

weight f4 [64, 4]
00000000: d1cf 83be d43f 633e 3625 a4be d1de 133f
00000010: fa2f cb3c c2b3 233d 725e a4bd bc9f 20bd
00000020: 93be f1bc e523 12be 0124 433e 756f 54bd
00000030: 53e3 86be 57f6 0f3f 4916 4d3e fb37 5c3f
00000040: 34b7 13bf ad93 873c 7a18 ebbe 6ec5 bebd
00000050: 5945 c2be 8fc2 443e f948 c4be f510 2c3e
00000060: 2aeb 10bf bc82 6ebe 5801 80be 77ee 883e
00000070: ef3d 85bc 181f 9abc 4d88 ef3e 0369 debd
00000080: 248b 80be 8364 0e3d 7df5 8cbd 7d3e 99be
00000090: 0d4f 68be 7472 693d fa1b ea3e 5a1b 32be
000000a0: 0fa6 f4bc 5a44 e1bd 8e85 3fbd daa9 143c
000000b0: 5f6b 8f3c b758 553d 6794 5dbe a389 db3c
000000c0: 151f 0ebe 75dc a8bc 3e6d fcbe d438 4f3e
000000d0: 68dd cb3d 9901 4c3e 9c11 0bbf 3a5d 103e
000000e0: 1a94 113d 5d88 913c aef2 91bd 4329 893d
000000f0: bb8d d7bd 5f34 003e ac4a c8bc 73b1 88bd
00000100: e6c1 1b3e 0e3a 523d db65 413f 50c4 a6be
00000110: 99e2 113f 3882 c73e 49c7 bb3d 9bee 303f
00000120: c4fc a63d dd53 383e b451 9cbe 79a0 d53d
00000130: 71dd 84ba 4ed2 d2bd 05c9 33be ab70 9e3c
00000140: ae27 7e3d 71c2 603e 9914 9abd 358b 3a3d
00000150: 9571 bbbc 5c80 39bd c3d8 d13e 85d5 9abd
00000160: ef31 f63c a564 eabb 06d3 ca3d 15d3 6dba
00000170: d728 46be 625a b2be 0555 0d3f 55b0 8bbe
00000180: 6901 663d 2312 813d 6035 58be df55 783d
00000190: 5a7b 1fbe d654 c9be e573 8abe cc25 f23d
000001a0: ca4b a93c 3e73 0e3d f92a e43d 1013 afbc
000001b0: a88c 67bc a073 a0bd 2828 b43e aae1 a0bd
000001c0: 32e4 a93d 1632 8f3d 863f cbbd 48d1 283d
000001d0: b952 97be e1eb 88be e041 d4be a238 90be
000001e0: 23ce c33e 2621 10bf a247 013f 03f8 b5be
000001f0: 3c67 06be 2d7e a0be 96b6 563e 3530 103c
00000200: c22f 4f3e 0f74 173e a31d 243f 757d 0e3e
00000210: aaa4 28bd 259c 09be e742 b23e 580b d8bd
00000220: bdf5 62bd 6b56 b7bd ea38 c93e 60f4 8ebd
00000230: 2da7 b63e b3f9 dd3d 8ada b63e c456 813d
00000240: f479 113d d784 1d3e 8be7 593e 6e9c a2bd
00000250: 5f68 153e 3d1d 133c ac8d ce3d 8e08 2cbe
00000260: 408d 493f 90bf 5e3e ad63 9f3e e877 8cbe
00000270: 629b b63d 43d6 373e fa3b adbe a8e2 d13d
00000280: 2065 c33d e9ca a73e f249 3b3e 6ae2 03be
00000290: 8e31 cabd bd6f 19be 9cf9 b03e c65a a83e
000002a0: ccf5 66be 8573 d83d d316 f3be ef65 ebbd
000002b0: c1b2 a7bd 512e 24be 4dda 0dbe ed36 2b3f
000002c0: c45c 7a3e b186 b73e 65c6 843e 2514 cebd
000002d0: 2ef0 62bd 57d2 fdbd 7078 90be 8b5d cc3d
000002e0: 41c5 1a3f 572c 533e 1c78 a33c 6a9e c43d
000002f0: 32a2 1f3e 67ed 853e 841c 303e 4136 a0bd
00000300: 4bfa 03bd 06ad cdbd 8543 1ebe f382 753d
00000310: e11a d0be cf56 1c3e 2f43 eb3e ca1f 0f3f
00000320: 6eda 59be 8e79 a1be 6e58 4f3f eb9a 0abf
00000330: 2b62 d43d 9a48 783e 673d 03bf da1b e43d
00000340: 336e 0a3e 598d e83e 3cbf e63e fc58 703e
00000350: b1df 80bb aaa3 bb3b 73f9 203d a311 15bd
00000360: 9028 8b3d 976d c33d 1629 87be 74e9 d43d
00000370: 3ea8 7a3d 9f05 b13d 8df9 bdbe 247a ea3d
00000380: 220c d93d 0a64 7cbe bf15 b13e 40d0 a5be
00000390: dc2d 3b3d 86fb 2a3c a5e4 76be 8aee ac3d
000003a0: 710e 00bf 2cae 04be 52cc f1be 1ac3 12bf
000003b0: 87b4 f13c bbcd 863e e7eb 973e e63c b8bd
000003c0: bcfc b63e 1e2b 113e 229b cb3e 92b7 5a3e
000003d0: 5eac 203e dc4d dfbe 6636 8c3d 3363 e8be
000003e0: 02f7 4cbe 8e28 c73e f27e 2dbf 116c 933e
000003f0: 817a 19bf bb36 0e3f 9544 1cbf a048 d33d
-0.2574449 0.22192317 -0.3205964 0.57761866 0.02480315 0.039966352 -0.080258265 -0.039214835
-0.029509818 -0.14271505 0.19056703 -0.051864106 -0.2634531 0.5623526 0.20028032 0.8602292
-0.5770142 0.01654991 -0.45917112 -0.093150005 -0.37943533 0.19214843 -0.38336924 0.16803344
-0.5660883 -0.23292059 -0.25001025 0.26744434 -0.016264884 -0.018813655 0.46783677 -0.10859873
-0.25106156 0.034763824 -0.06882761 -0.29930487 -0.22686405 0.056993917 0.4572447 -0.17393246
-0.02986434 -0.10999365 -0.046758227 0.009073699 0.017507253 0.05208656 -0.21638642 0.026799029
-0.13879044 -0.020612935 -0.49302095 0.20236522 0.09954339 0.19922484 -0.54323745 0.14098063
0.03554163 0.017765218 -0.071263656 0.06697323 -0.1052508 0.12519978 -0.024449669 -0.06674471
0.15210685 0.051324897 0.75546044 -0.3257165 0.56986386 0.38966537 0.0916887 0.69114083
0.0815368 0.18000741 -0.30531085 0.10430998 -0.0010136795 -0.10294019 -0.17557152 0.019340834
0.06204956 0.21949174 -0.0752346 0.045542914 -0.022881309 -0.04528843 0.4098569 -0.07560257
0.030053107 -0.007153111 0.09903531 -0.0009072286 -0.19351517 -0.34834582 0.55207855 -0.27282968
0.05615369 0.063022874 -0.21114111 0.060628768 -0.15574399 -0.39322537 -0.27041546 0.118236154
0.020666022 0.034777872 0.11141009 -0.021371394 -0.014132656 -0.07834554 0.35186887 -0.07855542
0.08295478 0.06991975 -0.099242255 0.04121521 -0.295553 -0.2674246 -0.4145651 -0.28168207
0.38243207 -0.5630058 0.5049993 -0.3554078 -0.13125318 -0.31346264 0.20968089 0.008800556
0.20233062 0.14790367 0.6410772 0.13915046 -0.04117266 -0.1343847 0.34816667 -0.10549039
-0.055410136 -0.0895203 0.39301234 -0.069802046 0.3567442 0.10838642 0.35713607 0.06315377
0.035516694 0.15382706 0.21279733 -0.07939993 0.14590596 0.008979139 0.100856155 -0.16800138
0.78731155 0.21752763 0.31130734 -0.2743523 0.08916356 0.17952828 -0.3383482 0.102483094
0.095407724 0.32771996 0.18289927 -0.12879339 -0.09872733 -0.14984031 0.34565437 0.32881755
-0.22554702 0.105689086 -0.4747835 -0.11494052 -0.081883915 -0.16033293 -0.13852806 0.66880685
0.2444945 0.3584495 0.25932613 -0.10062436 -0.055404834 -0.12393635 -0.28216887 0.099787794
0.60457236 0.20622383 0.019954734 0.096005276 0.15589216 0.26157686 0.17198378 -0.07822848
-0.03222112 -0.10042767 -0.15455444 0.059939336 -0.40645507 0.1526749 0.45949695 0.5590788
-0.2127473 -0.3153805 0.8099431 -0.54142636 0.103702866 0.24246445 -0.5126557 0.11138125
0.135186 0.4542034 0.45067775 0.23471445 -0.003932916 0.0057262974 0.039300393 -0.036393773
0.06794846 0.09542387 -0.26398534 0.1039609 0.061195605 0.0864365 -0.37104455 0.11449078
0.10598017 -0.24647537 0.34586903 -0.32385445 0.04569803 0.010435944 -0.24110658 0.08443935
-0.50022036 -0.12957066 -0.47226197 -0.5732895 0.029505027 0.26328835 0.29672167 -0.089959905
0.35739696 0.14176604 0.39766794 0.21359089 0.15690753 -0.4361409 0.06846313 -0.45388183
-0.20016101 0.38898128 -0.6777183 0.28793386 -0.5995255 0.5555226 -0.6104215 0.103165865

bias f4 [64]
00000000: 2d84 1abe 38fb 5c3d 779d cbbc 9716 c8be
00000010: 5163 5d3e 6141 ec3c 237d 063e 4ffb 22be
00000020: f13a e33d ee79 0abe bfa0 613d 1563 773d
00000030: 41c3 253e 25ec ae3d 8071 d7ba 2acc 84bc
00000040: b852 80be b90c 99be 44de 4b3c b7f5 ea3d
00000050: 676a a3bd ef46 fabd 6563 83bd 473c f03c
00000060: 8c78 7b3d 8d06 833e f3a5 8ebd 79ba b5bd
00000070: 22ad 07bb cf34 9d3e 70d7 0e3e 4969 873d
00000080: f2fa acbe 06f9 8dbd 862b e0bd 53a8 7bbe
00000090: 51a0 12be d837 3e3c f8d2 1abe d7fe 273d
000000a0: 0767 49be 2e22 31be 76ab 393e 3405 4ebd
000000b0: b730 86be d732 233e 397e 24be 806d 44be
000000c0: 42c1 e13d 153a a6be 7fa7 03bd e9a9 823d
000000d0: 2946 b5be 5a60 f1bc e98d 183d ca72 af3d
000000e0: c8f1 653d 6184 883d 2f51 733e dc9b 5abe
000000f0: 2937 8cbe 24bb 6e3e c377 3d3c b70a 7dbc
-0.15089484 0.05395052 -0.024855359 -0.39079735 0.21619917 0.028839769 0.13133673 -0.15916179
0.110952266 -0.13523075 0.05508494 0.060397226 0.16187765 0.08541135 -0.0016437024 -0.016210634
-0.2506311 -0.2989252 0.012443129 0.11472648 -0.07979279 -0.12220561 -0.064154424 0.029325617
0.06139426 0.25590935 -0.06965246 -0.088734575 -0.002070256 0.30704352 0.1394937 0.066118784
-0.33785206 -0.06932263 -0.109458014 -0.2457593 -0.14318968 0.011609994 -0.1511954 0.04101452
-0.19668208 -0.17298195 0.18131813 -0.05029793 -0.2620904 0.15937363 -0.16063775 -0.19182396
0.11023189 -0.32466188 -0.03214216 0.06380064 -0.3540509 -0.02946489 0.03724471 0.08566816
0.056138784 0.06665874 0.23761438 -0.21348518 -0.27385834 0.23313576 0.011564198 -0.015444449

weight f4 [32, 64]
00000000: 6bfc d8bd 042a b1bc e87a 13bd ed83 dbbd
00000010: 8f29 343d c241 0f3d ab51 05be 86de 9d3d
00000020: 797a 64bd d76c b7bd 9230 d6bc 7326 af3c
00000030: 8e57 a23d f9ce 13be 69f1 1d3d 8794 82bd
00000040: 4334 7b3e 9d52 4dbd 2688 8dbd 3935 23bd
00000050: 8d10 47bd 961f 05bd ef6f e73d 0369 cdbd
00000060: 5fd1 d33c ec5a d33d 35ee d5bd 3c9a 283d
00000070: 7b46 05be 4cc4 44bc 1531 5a3d aa8b 913d
00000080: a35b bd3d fa0e 503e 78f7 02bd debe bdbb
00000090: ef02 2cbd f464 3cbd d6bc f43c fcfb 6e3d
000000a0: ec35 da3c b10e c83d 891e 0dbd e0de 56bd
000000b0: 8a89 0f3e 24db 0f3e d6f2 ebbc 974e cc3d
000000c0: acb5 8e3d 2057 163e 8903 3f3d 106f dabd
000000d0: 7af2 073e 12fe 5fbd 31d7 16bd 0585 22be
000000e0: a23f 513d 2eee d33c 64f7 6b3d 823e 263d
000000f0: f97a dabc b9b4 a8bd 9be6 0c3e 7141 70ba
00000100: 0e9c 5bbe bb68 103e eb56 6cbe c0b3 f3bd
00000110: 0539 8d3c bd98 ae3d 3b6f 333e c961 883d
00000120: 0078 9abd 449e 593b 0bd9 f1bc b9f3 57bd
00000130: 8139 403c dec1 c93d 0f26 08bd e41a 38bb
00000140: 23d6 923d 3184 53bd 0326 f93d 10da 85bd
00000150: 407f cc3d ee56 003e d3a4 873d bf78 ab3c
00000160: 4fd5 583e a2e6 293d 73c4 ab3d 6dfe 74bd
00000170: 6d4f 5b3e a9c0 0b3d 572a 153a e125 b93c
00000180: 5a17 133e 1ce5 21be a3fc 673e 7bd3 393e
00000190: 2c1c 413e 7167 1fbe cb2b 713d 30ca bf3c
000001a0: 4403 b2bd f5d3 df3d a0f4 07be 0704 723d
000001b0: 9f1d 9ebd 3957 37bd 3bc9 a63d b399 1c3e
000001c0: 3354 d2bb d4a6 2fbd d978 803d 04ab 1dbe
000001d0: c34e 1f3e 0371 cdbc 8ae2 0cbe 008c eb3d
000001e0: d65b 0ebd c688 213e d9db f23c 6cdb 8d3d
000001f0: aea0 f13d 5511 aa3d de9f 6dbd 0b5d 7b3d
00000200: 52f1 1fbe f8be 05bd 3d71 9fbd d262 ef3d
00000210: 9faf 3fbe 2442 d0bd d709 3cbe 9f99 3bbe
00000220: 9b70 33be ac51 54be 341f f2bb be8f 0e3e
00000230: 74a5 1dbe f8c1 bd3d 8e4d 1dbd 7e02 0abc
00000240: dd1d 383d 2829 c43e cd17 5c3e 01c3 ddbc
00000250: c573 d4bd 7a30 9bbd 7e9e 00bd b7bd 6cbe
00000260: 7475 e1bc 3d6d 88bd e226 83bd b72f 8bbd
00000270: d1ff cc3d deae 6ebe 6cc1 7e3e f1a0 84bd
00000280: 4849 733e 0314 00be 5668 67bc c951 813d
00000290: 9972 aebd f3b8 763d 9389 af3e 9165 0f3e
000002a0: 6606 033e 6702 43be 1d1c efbd a824 5ebc
000002b0: 040b 033d baa8 033e 4941 483e 07c7 0a3e
000002c0: 3c10 caba 8f87 c2bd e45a 35be 9e4a abbc
000002d0: 671a a63e 4a6a d8bd 03f0 08bd a29c b63d
000002e0: 13f1 993d 628f 093e 8336 49be f84b 9ebd
000002f0: 0fbb b23d 2772 003e 7d15 62be 3c8b 11be
00000300: 4798 e33b f41a 27bd 19a7 72be e3c8 f4bc
00000310: 8e46 083e 30b2 07bd 5971 7d3d 0e8c bebd
00000320: 5a38 5c3d c2b8 02bd 18e3 773d 36c1 26be
00000330: 9f5a 1fbe b8cf 493e a7c4 4ebd 8ad6 bf3d
00000340: fb05 5ebd 86d1 50bd a326 083e fe5c 803d
00000350: 03e1 a43d c04a 583d 6fd7 563d be0f ea3c
00000360: b2a1 a23d a306 023d 8c0a c13c 7616 8ebd
00000370: d7b6 0ebd ec8a 0ebe c10d fbbc cdc6 5abd
00000380: 0add da3d 1327 dc3c a357 a93d 00be 4ebe
00000390: 1797 c9bb 38ef 28bc 783c 9c3d 5995 86bc
000003a0: 4775 8f3d 5c27 d3bd 30d3 053e 62aa 36bd
000003b0: 6215 e0bd 93de e1bb 1585 13be feef b73d
000003c0: d77c 74bc 0a88 e13c c803 83bd 9dd0 bfbd
000003d0: c180 633e 8ab3 82bc 8454 6bbd f3bd 513e
000003e0: a9c5 1a3d b9c7 cabd bc83 063d 4659 8e3c
000003f0: 6dfe 333c a10c 8d3d aee3 ccbd 7484 a93c
-0.1059502 -0.02162648 -0.036005884 -0.10718522 0.043984946 0.03497482 -0.13019435 0.077084586
-0.05578086 -0.089563064 -0.026146207 0.021380639 0.07926856 -0.14434423 0.038560305 -0.063759856
0.24531655 -0.050127614 -0.06910734 -0.03984568 -0.04859977 -0.032500826 0.113006465 -0.10029795
0.025856672 0.10320076 -0.10445825 0.041162714 -0.13015167 -0.012009691 0.053269465 0.07106717
0.09245994 0.20318213 -0.031974286 -0.0057905754 -0.041994985 -0.045994714 0.0298752 0.05834578
0.02663704 0.09768427 -0.03445295 -0.052458644 0.1401731 0.1404844 -0.028802317 0.09975927
0.06968245 0.14681673 0.04663423 -0.10665715 0.13276091 -0.05468566 -0.036826316 -0.15871055
0.051086076 0.025870409 0.057608977 0.040586956 -0.026669966 -0.08237595 0.13759844 -0.0009165025
-0.21446249 0.14102452 -0.23080032 -0.11899519 0.017239103 0.08525226 0.175229 0.06659276
-0.075424194 0.0033205906 -0.02952244 -0.052722666 0.01173246 0.0985143 -0.03323942 -0.00280922
0.071697496 -0.05163974 0.12165453 -0.06535733 0.099852085 0.12533161 0.066232346 0.0209316
0.21175121 0.041479714 0.08387079 -0.05981295 0.21417017 0.034119282 0.0005690208 0.02260107
0.14364377 -0.15810055 0.22654967 0.1814708 0.18858403 -0.15566804 0.058879655 0.02341184
-0.08692029 0.109290995 -0.13276911 0.059085872 -0.077204935 -0.044760916 0.081438504 0.15293007
-0.0064187287 -0.04288371 0.0627305 -0.15397269 0.15557389 -0.025078302 -0.13758293 0.11501312
-0.03475555 0.15774831 0.029645847 0.06926617 0.11798225 0.08304087 -0.05801379 0.06136803
-0.156194 -0.032652825 -0.0778527 0.1168877 -0.18719338 -0.10168865 -0.18363129 -0.1832032
-0.17523424 -0.2073428 -0.0073889736 0.13922021 -0.15395147 0.09265512 -0.03840404 -0.008423446
0.044950355 0.3831265 0.21493454 -0.027070524 -0.10373644 -0.075776055 -0.03140115 -0.23119245
-0.027521826 -0.066614605 -0.06403901 -0.0679621 0.100097306 -0.23308894 0.24878472 -0.0647601
0.23758423 -0.12507634 -0.014123997 0.063144274 -0.085179515 0.060234975 0.34284648 0.14003588
0.1279541 -0.19043885 -0.11675284 -0.013558544 0.031992927 0.12857333 0.19556154 0.13552485
-0.0015416215 -0.09498512 -0.17710453 -0.020909604 0.32442018 -0.10567148 -0.033432018 0.08916594
0.075166844 0.13433602 -0.19649701 -0.07729334 0.08727085 0.12543546 -0.2207851 -0.1421327
0.006945643 -0.04079719 -0.23696555 -0.029880947 0.13308164 -0.033128917 0.061875675 -0.09304057
0.05376468 -0.03191448 0.060519308 -0.16284642 -0.15561913 0.19708145 -0.05048051 0.09367092
-0.054204922 -0.050981067 0.13295989 0.06267737 0.0805073 0.052805662 0.052451547 0.02857196
0.07940997 0.03174461 0.0235646 -0.06937878 -0.03484234 -0.13920182 -0.030646207 -0.053412247
0.10686691 0.0268741 0.082686685 -0.20189667 -0.0061520445 -0.01031094 0.07628721 -0.016428636
0.07004791 -0.103102416 0.13068843 -0.044596083 -0.109415784 -0.006892988 -0.14406236 0.08981322
-0.014922342 0.027530689 -0.063972056 -0.09365962 0.22217084 -0.015954752 -0.057453647 0.20482616
0.03778616 -0.09901375 0.032840475 0.017376553 0.010985953 0.068871744 -0.10004364 0.020693041

bias f4 [32]
00000000: da90 09bb 186d 0a3d 7630 eb3c 8ea7 9bbd
00000010: 7544 9abc 9599 f23c 23c0 03bd 19df 893c
00000020: 1ca2 d73d 211f 513d 239f 503c 88a7 693d
00000030: 30a8 45bd fae6 863d 0673 ca3c 4a75 c83d
00000040: 2051 a7bd e545 2e3d bb99 eb3c f8e3 5fbd
00000050: 3c8f c0bb 4696 b9bd fc50 8d3d 26e9 6ebd
00000060: 3234 173d b55c d1bb 2c74 193d 0893 6bbc
00000070: 46dc 6b3d daca 613d 6b6a 15be 7a3c f23c
-0.002099088 0.033795446 0.028709631 -0.07600318 -0.018831471 0.02961425 -0.032165658 0.016830014
0.10528967 0.051055077 0.012733254 0.057044536 -0.0482561 0.06587024 0.02471305 0.09787996
-0.0816977 0.042547125 0.028759828 -0.054660767 -0.00587645 -0.090618655 0.06900212 -0.058327816
0.03691501 -0.0063892254 0.037464306 -0.014378317 0.057583116 0.055125095 -0.14591376 0.029569853

weight f4 [16, 32]
00000000: ec45 18bc a61c d03d f835 73be 757f 843c
00000010: 252a c43c ce18 60be fadc c9bc 2068 dbbc
00000020: e19b 893d 81f1 443c 928f db3d 9836 aabc
00000030: 1894 b83d 9dea b83d cc3c ed3c 12d5 8cbc
00000040: 096d 423e 4875 2a3e 3ec6 76be d374 68bc
00000050: a704 573d b35f a53e a74b 95be 2e30 0cbe
00000060: d0bd ba3d 853a 22be 92ef 803d 4de8 1fbd
00000070: 7d05 c23d 5063 b1be c67f de3d c99d 983d
00000080: 42ac f73d 131f 513d e217 30ba c110 67bd
00000090: 97b8 4fbe 5f42 e0bd 4ca7 523c e3db 223e
000000a0: e2d0 60bb 44c8 8fbd 8b30 f6bd a228 f73d
000000b0: ad02 e7bd 0c40 38bd 6e26 d23d 2ddb d63d
000000c0: c5b2 733d 0f8c 793c a9e2 82be 0308 00be
000000d0: 96dc 8dbd 88e2 ac3b d1c7 47be f08c e63d
000000e0: 6669 14bc c157 36be 0f55 ac3d 6ef7 c0bd
000000f0: a736 663d 5be8 d13d 9be6 0f3e 5b6f 913c
00000100: 0786 e5bd d87b 793c c458 493d 11b0 87bc
00000110: 0df1 debd 4b07 93bc 0206 bebd f846 9e3c
00000120: e78a fdbd a1c0 9cbd aadb ecbd 3037 2cbc
00000130: c227 cfbc 0a92 d23c 8c9f 0cbe 4f95 e43c
00000140: ea7c bbbc 46f1 cfbc 33bb 813d 40c2 713d
00000150: 8207 b33c b186 993d cbbb 3cbd cc17 96bd
00000160: e8a9 543d 5fd4 3cbd 3588 1ebe d8a8 70bd
00000170: 4ca7 e1bd e770 0d3d deb3 07bc 59a4 07be
00000180: bcf4 543d aa77 77bc 5a81 45be fc78 84bc
00000190: ec4c a03d aa87 9abe 789a 08bd 3aca dfbd
000001a0: 37e7 65bd 8c2f 47bd 53a9 933b aa9c a73d
000001b0: 9749 7ebd 4cec 833d f63a 15bd d80c c0bd
000001c0: 3cca ac3e 3da4 65bd 35d2 f5bc 2f75 953c
000001d0: e90c 58bd 4709 463e fc3f 63bd e0be 013d
000001e0: 077c dbbd 2e20 85bd 63cd 2c3d 99ba 803d
000001f0: 7d10 76bd 1461 bc3b 4d5f ef3e f81f 083d
00000200: 8fb4 1fbc 6f9c 2d3d 9144 7c3d 117b 0c3e
00000210: f37a 59bd 1641 183c a537 89bd b7b3 44bb
00000220: d5f8 4d3c a44d 7f3d d7c0 cfbd 6d80 8a3d
00000230: 61e4 38bd 60ee 2a3c 3e0c b63d 21cd fdbc
00000240: 2fa3 a2bd 9c84 82bd a475 2b3e 7f98 e53c
00000250: c3c8 943c 22b7 fa3d d113 a0bd 8aaa 043a
00000260: a32f 32bd aff5 1d3d 5987 933c 1cb5 42bd
00000270: 6aa7 d4b8 50f9 14be 7a4a 543d 0a6d 9dbd
00000280: 678f 873c 0547 533c 725c c13d bb61 82bb
00000290: 8dd6 cabb ea5d a03e 8392 c43c b473 d53c
000002a0: 10fe 603d 846c abbc 0702 513a 149d 3fbc
000002b0: b058 ba3c db89 1dbd 4e63 613c 95eb bdbc
000002c0: 09a2 62bd b203 a23c 9350 cbbe 76f2 943c
000002d0: 6150 173d 9873 f13c f6b5 cabe f418 81bd
000002e0: e189 973d 930c 61be 3ef1 2a3b 242a 4a3d
000002f0: b762 0fbd 68ac b7bc 7c3f e4bd 763b 0bbd
00000300: 52e4 19bd 9392 d2bd a6c2 bfbe c8e8 9b3b
00000310: a9a4 45bd f07a f9bd 2471 6e3d b49c cb3d
00000320: 786a b53d 1dee e53d 1df9 bcbd 02d6 cdbd
00000330: 11e4 9dbc c9fd 2bbe 077e 813d f84b b93d
00000340: 5b35 a53e 0f5a ecbd 0a18 eabd 3fc1 98bc
00000350: 639e ee3c 148d 9d3e 683b 17be d732 983d
00000360: 2b57 043d 431b a9be 0fd4 67bd 65b5 9abc
00000370: 14fa 8cbd 6f1b 29be ffa7 ca3e a775 debd
00000380: 38ba 95bd 5b9d 933d a9f9 3bbc d9d7 be3d
00000390: 84d0 0dbb c310 373d be48 8c3c 6330 bc3a
000003a0: 35ee 23be 79bb 3a3c c6d0 a23c 9e6b 083d
000003b0: 9272 803d de60 95bd 23e7 c33d a21a 4ebd
000003c0: 6742 563e 4c64 ab3c 946e 453d e24d 703d
000003d0: 00c8 52be c333 e5bd 77c0 83be d519 5abc
000003e0: 31a1 dbbc 07f3 de3d 71b0 22bd aadc 23bd
000003f0: e1e8 ffbc 7fb9 19bd 5a49 6a3d 3315 edbc
-0.009294014 0.10161714 -0.23751056 0.016174057 0.023945877 -0.21884462 -0.024641503 -0.02678305
0.06719185 0.01202047 0.10720743 -0.020777985 0.09012622 0.09029124 0.028959654 -0.017191444
0.18986906 0.16646302 -0.24099061 -0.014188009 0.05249467 0.32299575 -0.2915928 -0.13690254
0.09118235 -0.15842636 0.062956944 -0.0390399 0.09473703 -0.34646082 0.108642146 0.0745197
0.120934024 0.051055025 -0.0006717426 -0.056412462 -0.20285259 -0.10950159 0.0128572695 0.15904193
-0.0034304191 -0.070206195 -0.120209776 0.12068297 -0.11279807 -0.044982955 0.10261236 0.10491023
0.05949666 0.0152311465 -0.25563553 -0.12503056 -0.06926839 0.005276028 -0.19509818 0.112573504
-0.009058332 -0.17806913 0.08414661 -0.094221935 0.056204464 0.102493964 0.14052813 0.017753294
-0.11207204 0.015227281 0.04915692 -0.016563447 -0.108858205 -0.017947813 -0.0927849 0.01932095
-0.12380009 -0.076539285 -0.11565335 -0.010511205 -0.025287513 0.025704402 -0.13732737 0.027903227
-0.022886712 -0.025383603 0.063345335 0.05902314 0.021854166 0.074963935 -0.04607753 -0.07328758
0.051919848 -0.04610097 -0.15481646 -0.058754772 -0.110182375 0.0345315 -0.00828263 -0.13246287
0.05199121 -0.015104214 -0.19287625 -0.016170971 0.07827172 -0.30181628 -0.033350438 -0.109272435
-0.056128707 -0.04862933 0.004506269 0.08184178 -0.0620819 0.064415544 -0.036433183 -0.0937745
0.33748043 -0.056064833 -0.030007461 0.018244354 -0.052746687 0.19339477 -0.055480942 0.031676173
-0.10717016 -0.065002784 0.04218806 0.06285591 -0.06007432 0.0057488773 0.46752396 0.033233613
-0.009747638 0.042385515 0.061588828 0.13718821 -0.05309577 0.009292861 -0.067000665 -0.0030014345
0.012571533 0.062329903 -0.10144203 0.067627765 -0.045139674 0.01043281 0.08889054 -0.030981602
-0.07941281 -0.063729495 0.16744095 0.028026817 0.018162137 0.12241961 -0.0781628 0.00050608127
-0.04350246 0.03856438 0.018008875 -0.047536 -0.00010140131 -0.1454823 0.05182884 -0.07686813
0.016547872 0.01289535 0.09441461 -0.0039789355 -0.006190127 0.3132165 0.023995643 0.026056148
0.054929793 -0.020925768 0.00079730194 -0.011695165 0.022747368 -0.038461547 0.013756586 -0.023183623
-0.05533031 0.019777153 -0.3970991 0.01818202 0.03694189 0.029474065 -0.3959195 -0.063035876
0.07399345 -0.21977453 0.0026083733 0.049356595 -0.03500625 -0.022421077 -0.11144921 -0.033992253
-0.03757126 -0.10281863 -0.37453192 0.0047579743 -0.048252735 -0.121816516 0.058213368 0.09941998
0.08858198 0.11227057 -0.09227202 -0.100505844 -0.01927379 -0.1679603 0.06322866 0.09047693
0.3226727 -0.11540615 -0.11430366 -0.018646834 0.029128259 0.30771697 -0.14768755 0.07431572
0.032309692 -0.33028612 -0.05659872 -0.018885324 -0.06883636 -0.16514371 0.39581296 -0.10862284
-0.07310909 0.072077475 -0.011473098 0.093185134 -0.0021639178 0.04469372 0.01712453 0.0014357682
-0.16008838 0.011397236 0.019874942 0.033305757 0.062718526 -0.072938666 0.0956557 -0.050318368
0.20923768 0.020921849 0.04820116 0.058668025 -0.20584106 -0.111915134 -0.25732777 -0.013311823
-0.02681026 0.108861975 -0.03971905 -0.040005364 -0.031238975 -0.03753042 0.05719886 -0.028940773

bias f4 [16]
00000000: 9959 b4be 22d5 45be 2ef8 58bd aa26 32bd
00000010: d7ea ebbc 5752 89be abb3 a7be 1bc5 e83c
00000020: d0e0 443c 8ea2 51be 4d94 09bd 1265 2abd
00000030: 7e36 7a3c 0e62 e6bd 848c 12bd 5fff 8d3d
-0.35224608 -0.19319585 -0.052971058 -0.043493904 -0.028798504 -0.26820633 -0.32754263 0.0284143
0.01201649 -0.20472166 -0.033588696 -0.041600294 0.015271781 -0.11249171 -0.035778537 0.06933474

weight f4 [2, 16]
00000000: f866 17be 7948 bbbc 3f33 9fba d81a 9cbd
00000010: 5442 203b dffa 93bc e3ba 16be d838 933c
00000020: 68db 423b 9a0e a43a f515 5fbc baf0 643b
00000030: d877 10bc 7f16 ccbc 13d1 943b 5834 c4bd
00000040: 947d 2abe d45e d5bd 732c 543b 9034 9d3c
00000050: 8d97 82bb 10d5 d2be 7beb abbd f152 cd3c
00000060: 64a2 003d 5a88 2abe ad27 8eba 8940 573b
00000070: fef8 17bc 07d9 bc3c 4241 c63b 62e9 ca3d
-0.14785373 -0.022861706 -0.001214601 -0.076223075 0.0024453597 -0.01806396 -0.14719729 0.017971441
0.0029732827 0.0012516559 -0.013616075 0.0034933523 -0.0088176355 -0.02491307 0.004541525 -0.09580296
-0.16649467 -0.10418478 0.0032375127 0.019190103 -0.0039853514 -0.4117818 -0.08394524 0.025063964
0.031404868 -0.16653576 -0.0010845565 0.0032844862 -0.009275673 0.023052705 0.00605026 0.099077955

bias f4 [2]
00000000: eb3a 803e 74f3 803e
0.2504495 0.2518574
