model.onnx (onnx, 13217 bytes, 8 tensors)

model.0.0.bias f4 [64]
0	0x3c88c2d9	0.016694473
1	0xbe4a99e8	-0.19785273
2	0x3c0a1361	0.008427472
3	0xbbae5212	-0.005319842
4	0xbe61f855	-0.22067387
5	0xbbcf1e47	-0.006320748
6	0x3c86256c	0.016375266
7	0xbc8d4e55	-0.017249266
8	0x3b8eb46e	0.004355005
9	0x3b8a1b80	0.004214704
10	0x3bfa3a46	0.0076363413
11	0xba438b4d	-0.0007459417
12	0xbd751e6d	-0.05984347
13	0x3bd873f2	0.0066056186
14	0xbabf0940	-0.00145749
15	0x3e1e50ee	0.1546056
16	0xbc08b61d	-0.0083442
17	0xbb66c324	-0.0035211528
18	0xbc88909c	-0.016670518
19	0xbc3bd315	-0.0114639
20	0x3beca29e	0.007221534
21	0x3bd13f00	0.006385684
22	0x3b21d519	0.0024693666
23	0x3bf6279b	0.0075120456
24	0xbc1620ac	-0.009163063
25	0xbc34a386	-0.011025315
26	0x3c2bab36	0.010477832
27	0xbe244603	-0.16042332
28	0x3a966743	0.0011474866
29	0x3c661337	0.014042667
30	0xbb887214	-0.00416399
31	0xbb562f58	-0.0032682028
32	0x3b84fd1b	0.004058493
33	0xbb315734	-0.0027060034
34	0x3a256d1b	0.00063105085
35	0x3b455fb2	0.0030116853
36	0x3c179b36	0.009253314
37	0x3be73334	0.0070556644
38	0x3bf77940	0.007552296
39	0x3b729b2b	0.0037018757
40	0x3c09fd5f	0.008422225
41	0x3beff962	0.00732343
42	0x3bf8acbf	0.0075889523
43	0x3bbab58f	0.005697913
44	0xbbbe2fa5	-0.0058040195
45	0x3c641d2d	0.013922972
46	0x3bd99e02	0.0066411505
47	0x3c805c62	0.015669052
48	0xbb5cf281	-0.003371388
49	0xbb215a25	-0.002462038
50	0xbbd78dd7	-0.006578188
51	0xbc410b46	-0.011782473
52	0xbc1ed8c0	-0.009695232
53	0x3a3095fb	0.0006736216
54	0xbba850ce	-0.005136586
55	0x3d6aae43	0.057295095
56	0x3be5ca8f	0.0070126723
57	0x3a3a8c1d	0.00071162154
58	0xbc04aa0f	-0.008097186
59	0xbc022dd2	-0.007945495
60	0xbbe018d5	-0.0068388977
61	0x3c020de7	0.007937885
62	0x3c1e9225	0.009678398
63	0x3b947380	0.0045303702

model.1.0.bias f4 [32]
0	0xbcdbc198	-0.026825711
1	0xbd04e96f	-0.032449182
2	0xbe03e068	-0.12878573
3	0x3b7738a3	0.0037722967
4	0xbc6a73e3	-0.014309856
5	0xbca639ad	-0.020291174
6	0xbd570763	-0.05249728
7	0x3b72a522	0.0037024696
8	0xbd072590	-0.032994807
9	0xbd6116ad	-0.054953266
10	0x3cf32537	0.029680831
11	0xbd4a1e70	-0.049345434
12	0x3c88ef10	0.016715556
13	0x3d2a3f2d	0.041564155
14	0xbd2b98d6	-0.041893803
15	0xbcc5ce8d	-0.024146343
16	0xbd8ae418	-0.06781787
17	0x3d5ca84e	0.053871445
18	0x3c6dbf09	0.014510878
19	0xbd48cb23	-0.04902185
20	0xbd84521d	-0.06460974
21	0xbe6cd8ac	-0.23129529
22	0xbd7373b2	-0.059436508
23	0x3c65c876	0.014024844
24	0xbdfbbe7e	-0.12292193
25	0xbd65e9f7	-0.05613133
26	0xbcb88366	-0.022523593
27	0xbedd3549	-0.43204716
28	0xbce50fd5	-0.02796165
29	0xbd40cf99	-0.04707298
30	0xbd6f50a0	-0.0584265
31	0xbd77f1a6	-0.06053319

model.2.0.bias f4 [16]
0	0x3caa502e	0.020790186
1	0xbca8fff5	-0.020629862
2	0xbd86d3fe	-0.06583403
3	0xbcf703d4	-0.030153193
4	0x3d13efbc	0.0361173
5	0xbd4f66fa	-0.050635315
6	0x3d8a1821	0.067428835
7	0x3ca838ee	0.020534959
8	0x3b1f7ac1	0.0024334642
9	0x3bcd7602	0.006270171
10	0xbd703927	-0.058648255
11	0x3c9959c9	0.01871957
12	0xbf100bd4	-0.5626805
13	0x3cee2b0c	0.02907326
14	0xbd0f80f1	-0.035035077
15	0xbf104ac9	-0.56364113

model.3.0.bias f4 [2]
0	0xbde31e62	-0.110897794
1	0x3d0994f4	0.03358932

onnx::MatMul_25 f4 [4, 64]
0	0x3c71f363	0.014767501
1	0xbf43fe2a	-0.765597
2	0x3b495425	0.003072032
3	0x3c31408f	0.010818615
4	0xbeac4ade	-0.3365087
5	0xbcc45416	-0.023965877
6	0x3d4f66d1	0.050635163
7	0xbd71e392	-0.05905492
8	0x39cb118d	0.00038732254
9	0x3c1ae280	0.009453416
10	0x3a434efb	0.00074504287
11	0x3c68c643	0.0142074255
12	0x3ef500ac	0.47852075
13	0x3cd40bdb	0.02588456
14	0x3bd12e23	0.0063836738
15	0x3ecc0774	0.39849436
16	0xb995dbd6	-0.00028583285
17	0xbc879003	-0.016548162
18	0xbbb1540d	-0.005411631
19	0xbba025a5	-0.0048873
20	0x3c86c8ba	0.016453136
21	0x3badabfd	0.0053000436
22	0x3c8b8acd	0.017033959
23	0xbba6204a	-0.005069767
24	0x3c2a21a4	0.010383997
25	0xbbd32a61	-0.006444261
26	0x3b39eeae	0.0028371024
27	0x3eb44362	0.3520766
28	0x3bd24f17	0.0064181197
29	0x3c893057	0.016746683
30	0xbca72c2f	-0.02040681
31	0x3ba1336a	0.004919459
32	0x3b4becbd	0.0031116449
33	0x3b8ba2a4	0.0042613316
34	0x3b168d1b	0.002297229
35	0x3c40a48a	0.011757979
36	0xbb3be704	-0.0028671632
37	0x3d212f71	0.039351884
38	0x3ae7e1b0	0.0017691161
39	0x3c54b508	0.012982614
40	0x3b8d58bb	0.004313556
41	0x3cdd3274	0.027001597
42	0xbbb503c6	-0.0055241315
43	0x3c0d6f6c	0.008632522
44	0x3badffe6	0.0053100465
45	0x3a4f4841	0.000790719
46	0xbad9fdbd	-0.0016631406
47	0x3c29f9a9	0.010374465
48	0x3b800575	0.0039069005
49	0xbb80f775	-0.003935749
50	0x3b013e6d	0.0019721047
51	0xbba13db2	-0.0049206847
52	0xbc67476d	-0.01411615
53	0xbcb11abd	-0.021619195
54	0xbaec3947	-0.0018022441
55	0x3dfdec96	0.12398641
56	0x3c8242b9	0.015900956
57	0x3c9d2239	0.019181358
58	0xbb707605	-0.003669144
59	0x3b1df0c2	0.0024099802
60	0xbc9f17ba	-0.019420493
61	0xbb99c360	-0.00469248
62	0x3c99ea2c	0.01878842
63	0xbf434236	-0.76272905
64	0xbcd700c4	-0.026245482
65	0x3ea072f5	0.31337705
66	0xbc396e08	-0.011317737
67	0x3c8ac266	0.0169384
68	0x3d83af3d	0.064299084
69	0xbcaa5e9a	-0.020797063
70	0x3d1c0c16	0.038097464
71	0xbd047ef7	-0.032347646
72	0x391c4119	0.0001490157
73	0xbadb7cae	-0.0016745531
74	0xbc3b9942	-0.011450114
75	0x3c5b8762	0.013398977
76	0x3dbe5b80	0.09294796
77	0x3c92ac2b	0.017904362
78	0x3c85df96	0.016341966
79	0x3f41f992	0.7577144
80	0x3c80b863	0.015712922
81	0xbc83a96f	-0.016072003
82	0x3c7f07ea	0.015565852
83	0x3bd70ab1	0.006562554
84	0x3c788131	0.01516752
85	0xbc874b4c	-0.016515397
86	0x3c19b787	0.009382135
87	0xbcb51b67	-0.022107793
88	0x3cd5de73	0.026107049
89	0x3a0f002e	0.0005455044
90	0xba0764d0	-0.00051648635
91	0x3e8eaf6f	0.2786822
92	0xbc4ca30e	-0.012490047
93	0xbc0aa528	-0.008462228
94	0xbb617d59	-0.0034406988
95	0xbc05cfa0	-0.008167177
96	0x3b8e2a47	0.004338536
97	0x3c8f201a	0.017471362
98	0x3ba9bb21	0.005179778
99	0x3c5d0af4	0.013491381
100	0xbbf1e8f7	-0.007382508
101	0x3c8595fc	0.01630687
102	0xbb0c989a	-0.0021453262
103	0xbb89f6b0	-0.0042103156
104	0xbbd0e864	-0.0063753594
105	0x3c9b6247	0.01896776
106	0xbc41fa42	-0.011839451
107	0x3c851823	0.01624686
108	0x3cd80721	0.026370587
109	0xbcbd8541	-0.02313483
110	0xbc0082ab	-0.007843654
111	0xbc327b75	-0.010893692
112	0x3c83a4dd	0.016069824
113	0x3c2ee040	0.010673583
114	0x3c2e108e	0.010624064
115	0xbb3ca5e9	-0.0028785414
116	0x3ca5b36f	0.020227162
117	0xbcf0ab37	-0.029378517
118	0x3ccccc6a	0.024999816
119	0xbe1c415a	-0.15259305
120	0xbc5d2436	-0.013497403
121	0x3cd4d9b6	0.025982719
122	0x3c86420a	0.016388912
123	0x3c2089ce	0.00979848
124	0xba058353	-0.0005093116
125	0xbcb91f87	-0.022598041
126	0x3bdc7a6a	0.00672846
127	0xbe480340	-0.1953249
128	0xbd0b86bc	-0.03406404
129	0xbe54efb0	-0.20794559
130	0xbd2aa2f7	-0.04165932
131	0xbc8c9193	-0.017159259
132	0xbfa4ea00	-1.2883911
133	0x3d1c2104	0.038117424
134	0xbd2b7d90	-0.041867793
135	0x3ccbd243	0.024880534
136	0xbd18ff36	-0.037352763
137	0xbc82b66d	-0.015956128
138	0xbd15805a	-0.03649936
139	0x3c568d27	0.013095177
140	0xbe2bea95	-0.16788705
141	0xbc570970	-0.013124809
142	0x3bf8f4e6	0.0075975535
143	0x3ea6d897	0.3258712
144	0x3d5c1d5c	0.053738937
145	0x3b8123ac	0.00394102
146	0x3cb9083b	0.022586932
147	0x3d87b1d4	0.06625715
148	0x3c0ad9e8	0.008474804
149	0xbc8d8710	-0.017276317
150	0x37181c37	9.066475e-06
151	0xbc3c4bdc	-0.011492696
152	0x3d1f6d43	0.03892256
153	0x3cb203dd	0.021730358
154	0xbd329e38	-0.04360792
155	0x3fbfb1d7	1.4976147
156	0x3cc3ac86	0.023885977
157	0xbccaf6a2	-0.024775807
158	0x3a412464	0.00073677883
159	0x3d74b825	0.059745926
160	0x3c496ff5	0.012294759
161	0x3d091463	0.033466708
162	0x3c87b900	0.016567707
163	0xbcfabdc2	-0.030608062
164	0xbd86b1b6	-0.065768644
165	0xbc64ea7a	-0.013971919
166	0xbd07b606	-0.033132575
167	0x3c34cdc8	0.01103539
168	0xbd073735	-0.033011634
169	0xbc2de8af	-0.010614558
170	0x3b87b528	0.0041414686
171	0xbc287e62	-0.010284038
172	0x3ccdf7a9	0.025142508
173	0xbcbe5e67	-0.023238374
174	0xbd35cd55	-0.044385273
175	0xbd037f43	-0.032103788
176	0x3cba8a21	0.022770943
177	0x3cb54d20	0.022131503
178	0x3d544bb3	0.051830005
179	0x3d8d3a44	0.06895879
180	0x3d4eccf2	0.05048842
181	0x3cbd588d	0.023113513
182	0xbc630039	-0.013855034
183	0x3f4c095c	0.7970178
184	0x3d1f066a	0.038824476
185	0xbc834b48	-0.016027108
186	0xbc7e1324	-0.015507493
187	0x3c76133f	0.015019237
188	0xbbfb008a	-0.0076599764
189	0x3c0986b7	0.008393935
190	0xbd4c8fb5	-0.049941737
191	0xbc9acc71	-0.018896313
192	0xbd425f8b	-0.047454398
193	0x3f689578	0.9085307
194	0x3c378735	0.011201669
195	0xbd01bac0	-0.03167224
196	0x3d76bf4f	0.06024104
197	0x3bfd7211	0.007734545
198	0x3cb79029	0.022407608
199	0xbcd2c460	-0.025728405
200	0xbc1d69f5	-0.009607782
201	0xbcc0fce5	-0.02355809
202	0x3d0a36ae	0.033743553
203	0xbbfcab07	-0.0077108177
204	0x3dc4b876	0.09605496
205	0x3b94d6bd	0.0045422004
206	0x3ca7f4d2	0.020502482
207	0x3fa6c7f9	1.3029777
208	0xbc30a0da	-0.0107805375
209	0xbc860eb1	-0.016364427
210	0xbd603dde	-0.0547465
211	0xbd240a1a	-0.040048696
212	0x3d308825	0.043098588
213	0xbcba8d75	-0.02277253
214	0xbafe9dbb	-0.001942567
215	0x3ce77aff	0.028256891
216	0xbce92432	-0.028459642
217	0xbcdea75d	-0.027179414
218	0x3c771367	0.0150803095
219	0x3e2165c2	0.15761474
220	0xbd0e918f	-0.034806784
221	0x3d16662a	0.036718525
222	0x3b6bbba7	0.0035970004
223	0xb9abc262	-0.00032760488
224	0x3d79664f	0.060888585
225	0xbc5995e6	-0.0132803675
226	0x3c96083a	0.01831447
227	0xbc34db22	-0.011038573
228	0x3c429477	0.011876217
229	0x3c94d42b	0.018167576
230	0x3aa8ebea	0.0012887691
231	0xbbb9a1bc	-0.005665032
232	0x3c34035e	0.010987131
233	0x3c18a38c	0.009316336
234	0x3d0a8fb9	0.03382847
235	0x3d3f4ba0	0.04670298
236	0xbc45cd3b	-0.012072857
237	0x3d4a76d0	0.049429715
238	0x3a2411dc	0.0006258765
239	0x3d6f5f13	0.05844028
240	0x3c83b7b1	0.016078802
241	0x3cd5096e	0.026005473
242	0xbc194f16	-0.009357234
243	0xbd0232c6	-0.031786703
244	0xbd416499	-0.047215078
245	0x3bb1b4da	0.0054231705
246	0xbbd7ecc7	-0.0065895054
247	0x3f2b6baa	0.6696116
248	0x3c39da6f	0.0113435825
249	0x3a3df706	0.0007246587
250	0x3c3ce01d	0.011528042
251	0xbccbfd54	-0.02490107
252	0xbb784f95	-0.0037889231
253	0x3d2cceed	0.042189527
254	0x3d1a7903	0.037713062
255	0xbf1f82b4	-0.6230881

onnx::MatMul_26 f4 [64, 32]
0	0xbd994b2b	-0.0748504
1	0x3dd62a36	0.1045727
2	0xbd1baf59	-0.03800902
3	0x3d80a9d0	0.06282389
4	0xbd07d372	-0.033160634
5	0xbdc4ccea	-0.09609397
6	0xbbcb21e4	-0.0061991084
7	0xb92172b0	-0.00015396881
8	0xbcfca330	-0.030839533
9	0xbdab88c4	-0.08375695
10	0x3c9e771d	0.019343907
11	0x3d1721a7	0.036897328
12	0x3dbe7bef	0.09300982
13	0xbd82dbe3	-0.06389596
14	0x3ca09608	0.01960279
15	0xbdb394de	-0.087686285
16	0x3ca942a0	0.020661652
17	0xbb9c9363	-0.004778312
18	0x3c9cc0f7	0.019134982
19	0x3d287478	0.0411267
20	0x3b7d58cb	0.003865766
21	0x3a6ad347	0.00089578744
22	0xbdf612fe	-0.12015341
23	0xbc51b2ff	-0.012799024
24	0xbd91933f	-0.07108163
25	0x3ab4557e	0.0013758389
26	0x3db34fc2	0.08755447
27	0x3b372128	0.0027943347
28	0xbd851c6d	-0.064995624
29	0xbc1977fb	-0.0093669845
30	0x3d0f1cc9	0.03493956
31	0xbd9024ff	-0.070383064
32	0x3b6871eb	0.003546829
33	0x3ca6bc8d	0.02035358
34	0x3e917cfa	0.28415662
35	0x3d9e31ff	0.0772438
36	0x3c86b03e	0.01644146
37	0x3b838e8b	0.004014795
38	0x3c652bff	0.01398754
39	0xbdd64f59	-0.10464353
40	0xbb73ec33	-0.0037219643
41	0xbd8ec8fc	-0.069719285
42	0x3c697c17	0.014250777
43	0xbdd2099a	-0.102557376
44	0x3d5ee188	0.054414302
45	0x3cd02f04	0.025413044
46	0x3cb6f0b5	0.022331575
47	0x3c84592c	0.016155802
48	0xbdcd0068	-0.10009843
49	0x3c82c57d	0.01596331
50	0x3f86df7e	1.0536954
51	0x3c4d42b3	0.012528109
52	0xbdad4e2f	-0.08462178
53	0x3ede0a09	0.4336703
54	0xbce67d19	-0.028135823
55	0xbd29ec0b	-0.041484874
56	0xbe3a2b7c	-0.1818065
57	0xbdcfc33e	-0.10144661
58	0x3d586a80	0.05283594
59	0xbf3ec4d6	-0.745191
60	0x3ce99777	0.028514607
61	0xbc3e0b06	-0.011599308
62	0xbd022ad5	-0.03177913
63	0xbce3a8f4	-0.027790524
64	0x3e3e2809	0.1856996
65	0x3c9ff7a0	0.019527256
66	0x3bf64962	0.007516072
67	0x3d5a004c	0.05322294
68	0xbd86f797	-0.06590193
69	0xbdaa8077	-0.08325284
70	0xbd362d01	-0.044476513
71	0xbdb64fb1	-0.08901919
72	0xbd705d35	-0.05868264
73	0xbd4be56b	-0.049779337
74	0x3c4cf865	0.012510394
75	0xbd980cb1	-0.07424296
76	0x3dc2e013	0.09515395
77	0xbd1fc6fc	-0.039008126
78	0x3db1766f	0.086651675
79	0xbd2b7b15	-0.041865427
80	0xba8baa8a	-0.0010655683
81	0xbc6206c5	-0.013795559
82	0x3bb462a2	0.005504922
83	0x3c714d4c	0.014727902
84	0x3d9bf3eb	0.07614883
85	0x3c532b84	0.012888793
86	0xbd1131e4	-0.03544797
87	0x3c8fa9d2	0.017537031
88	0xbd8ea312	-0.06964697
89	0x3d28818f	0.04113918
90	0x3d820c05	0.06349949
91	0x3cebc034	0.028778173
92	0x3cb0cabf	0.021581052
93	0x3ca8afcf	0.020591645
94	0x3dbea524	0.09308842
95	0xbd976c9b	-0.07393762
96	0xbdce828d	-0.10083494
97	0xbbd22a3d	-0.0064137266
98	0x3c63dc73	0.01390754
99	0x3d2d5a72	0.042322583
100	0x3dc72909	0.09724624
101	0x3cc6425e	0.024201568
102	0x3d8d4384	0.06897643
103	0x3d8362fe	0.06415366
104	0x3d3ba877	0.045814957
105	0x3d033f85	0.032043
106	0x3da671a8	0.08127147
107	0xbd077511	-0.033070628
108	0xbc0d9cf7	-0.00864338
109	0x3ccedb43	0.025251037
110	0xbe0f123d	-0.13971801
111	0xbd4d0073	-0.050049257
112	0xbd1d69bc	-0.038430914
113	0x3dae50f8	0.08511537
114	0xbb2f0c47	-0.0026710199
115	0xbc966ba1	-0.018361868
116	0x3e13ac27	0.1442114
117	0x3be83feb	0.0070876977
118	0x3e1b74c1	0.15181257
119	0xbdc61f98	-0.09673995
120	0x3e0b50e4	0.13605076
121	0xbaee1612	-0.0018164536
122	0xbdaa28dc	-0.083085746
123	0x3b7a2208	0.0038167257
124	0x3db73c23	0.08947017
125	0x3d961c52	0.073296204
126	0x3d9a908d	0.07547102
127	0xbd9d0704	-0.07667354
128	0xbd59f069	-0.05320779
129	0x3d7ee37d	0.06222867
130	0x3e21fc43	0.15818886
131	0x3d7b68f7	0.0613794
132	0x3dbbc56b	0.09168514
133	0x3d5b00a7	0.05346742
134	0xbd6b521e	-0.05745136
135	0x3d0246d7	0.03180584
136	0x3c5c0a98	0.01343026
137	0xbd1ca522	-0.03824342
138	0xbd2e3b7f	-0.04253721
139	0xbc43eeaf	-0.011958762
140	0xbd76f892	-0.06029565
141	0xbbd2c323	-0.0064319535
142	0xbcfb5a24	-0.03068263
143	0x3ca5e5ae	0.020251121
144	0xbcc7384e	-0.02431884
145	0x3d8917f2	0.0669402
146	0x3d885bc5	0.06658129
147	0xbe964f97	-0.29357597
148	0xbc830eab	-0.015998205
149	0x3f14c981	0.5811997
150	0xbd91c0d4	-0.07116857
151	0x3d0f236b	0.034945887
152	0xbd7632d2	-0.06010706
153	0x3b07e124	0.002073356
154	0x3d61fd61	0.05517328
155	0xbf44a890	-0.76819706
156	0xbca35f86	-0.01994301
157	0xbc9a7800	-0.018856049
158	0xbd002240	-0.031282663
159	0x3a2efa4b	0.000667487
160	0x3d56ef30	0.0524742
161	0x3d3c6840	0.045997858
162	0xbda02479	-0.078194566
163	0xbbdf7b30	-0.006820105
164	0xbc3ff604	-0.01171637
165	0x3dbe97f7	0.09306329
166	0xbbb95855	-0.005656282
167	0x3e0fe825	0.140534
168	0xbd546483	-0.051853668
169	0x3cb8ec49	0.022573607
170	0xbc8cf8f9	-0.017208563
171	0x3d7a4503	0.06110097
172	0xbdcfbe56	-0.101437256
173	0x3d00ae1e	0.03141605
174	0x3cb2adcf	0.021811394
175	0x3bc2b83f	0.005942374
176	0x3d45d599	0.048299406
177	0xba5ed32a	-0.0008500094
178	0xba3ecd5f	-0.00072785275
179	0x3b8cc152	0.0042955065
180	0xbde0e38d	-0.10980902
181	0x3a315398	0.00067644706
182	0xbe1592c5	-0.1460677
183	0x3de729a3	0.112872384
184	0xbdabcb22	-0.08388354
185	0x3d7c25bf	0.061559435
186	0xbd0a15d0	-0.03371221
187	0xbcdad1ee	-0.02671143
188	0xbcf20f03	-0.029548174
189	0x3dad686a	0.08467181
190	0xbcb9ee4f	-0.022696642
191	0x3db3646f	0.087593906
192	0x3da1ec0c	0.079063505
193	0xbd1bab01	-0.03800488
194	0x3d5d8645	0.054083128
195	0xbceeaed5	-0.0291361
196	0xbd09bc63	-0.033626925
197	0xbd4ca057	-0.0499576
198	0xbc2f1303	-0.010685685
199	0xbca99dea	-0.020705182
200	0x3c220427	0.009888685
201	0xbdae1f54	-0.08502069
202	0xbd399644	-0.04530932
203	0xbe1d1b92	-0.15342548
204	0x3d90fed0	0.070798516
205	0x3d2a137e	0.041522495
206	0xbd866e6b	-0.06564029
207	0x3d8d4ca2	0.06899382
208	0x3c6bba66	0.014387703
209	0x3d405e26	0.046964787
210	0x3bd4ec5a	0.006497902
211	0xbc4d3399	-0.012524509
212	0x3d38043c	0.044925913
213	0x39ad1429	0.00033012152
214	0x3daa6f34	0.083219916
215	0x3ad6ef30	0.0016398188
216	0x3c165972	0.009176599
217	0xbe07801e	-0.13232467
218	0xbd3a1422	-0.045429356
219	0x3bf6306e	0.0075130975
220	0x3c24dd8c	0.0100625865
221	0x3d88f99d	0.06688235
222	0xbce80f3b	-0.028327575
223	0xbc80c8db	-0.015720775
224	0xbd1a1830	-0.037620723
225	0xbcdcd65a	-0.02695768
226	0x3cc30d9d	0.023810202
227	0xbca74570	-0.020418853
228	0xbc30280c	-0.010751735
229	0xbb9e78e4	-0.0048361886
230	0x3da124ae	0.07868324
231	0xbd60b5c6	-0.054860853
232	0x3d0e2ca5	0.034710545
233	0x3d513564	0.051076308
234	0xbc5fe395	-0.0136651
235	0xbda5dc96	-0.08098714
236	0xbd7982cc	-0.060915753
237	0xbdf51bd3	-0.11968198
238	0xbb5a798c	-0.0033336608
239	0xbd9a7fde	-0.0754392
240	0x3d96b87f	0.073594086
241	0xbd8b9935	-0.06816331
242	0xbc063ae9	-0.008192756
243	0x3ca4e757	0.020129843
244	0xbdf0a66a	-0.11750491
245	0xbc6da0b5	-0.014503648
246	0xbdbc1fd5	-0.09185759
247	0x3d4d3a81	0.05010462
248	0x3b4dceca	0.0031403773
249	0x3ca39e47	0.019972933
250	0xbcfb9fb0	-0.030715793
251	0x3c16daeb	0.009207468
252	0xbd094d3d	-0.033520926
253	0xbd003f41	-0.031310324
254	0xbcfc20b6	-0.030777317
255	0x3de5ca78	0.112202585

onnx::MatMul_27 f4 [32, 16]
0	0xbdc0892b	-0.09401163
1	0x3d0daeb7	0.03459045
2	0xbde88fae	-0.1135553
3	0x3d829954	0.06376901
4	0x3cbebda6	0.02328379
5	0x3c44cdd7	0.012011967
6	0x3c42e4a9	0.011895337
7	0x3d54e4cf	0.05197602
8	0x3b75f416	0.003752952
9	0xbda91b80	-0.08257198
10	0xbccab1d4	-0.024742998
11	0x3e1276dc	0.14303154
12	0xbcad797c	-0.021176092
13	0xbd32a779	-0.043616746
14	0xbbfc507f	-0.0077000256
15	0xbbea36fd	-0.0071476684
16	0x3b6a27d6	0.003572931
17	0x3dcd04bf	0.10010671
18	0xbd9b3d99	-0.07580108
19	0x3e463013	0.19354276
20	0xbd3aec03	-0.045635235
21	0x3ce9879a	0.028507043
22	0x3b2df85c	0.0026545739
23	0xbdd449f5	-0.10365669
24	0x3e52926f	0.20563672
25	0xbe410515	-0.18849595
26	0x3c86e3ff	0.016466139
27	0x3d6df2c6	0.058092855
28	0xbc0dc42a	-0.008652726
29	0xbd828256	-0.06372516
30	0xbc27613c	-0.010216054
31	0x3c0e60ef	0.008690103
32	0x3d0f4a18	0.03498277
33	0xbda5e89e	-0.08101009
34	0xbda363c0	-0.0797801
35	0xbdb53973	-0.08848848
36	0x3d91e464	0.0712364
37	0xbe0bf85d	-0.13668962
38	0x3d6b9bfc	0.057521805
39	0xbd3f202f	-0.046661552
40	0x3ce3c829	0.027805405
41	0x3db3ca2f	0.08778798
42	0xbe53eec2	-0.20696548
43	0xbac48dba	-0.0014995851
44	0xbe1b922d	-0.1519248
45	0x3e0e116f	0.13873838
46	0xbd97f47d	-0.07419679
47	0x3eb9d6b7	0.36296627
48	0xbd7dff12	-0.062010832
49	0x3d458e65	0.0482315
50	0x3ca20a99	0.019780444
51	0x3d124de7	0.035718825
52	0xbd449ca7	-0.048000958
53	0x3c3750c3	0.011188689
54	0x3cad482d	0.02115258
55	0x3ba95adc	0.005168302
56	0x3dc2a2e5	0.09503726
57	0x3d083fe3	0.033264052
58	0x3d4360b9	0.047699664
59	0x3d78f232	0.06077785
60	0xbb1391c7	-0.002251731
61	0x3d309775	0.04311319
62	0xbd99e8a4	-0.07515076
63	0x3c992b6b	0.018697461
64	0x3d407125	0.046982903
65	0x3d96fd79	0.07372565
66	0xbcde6db2	-0.027151916
67	0x3e0d21a3	0.13782363
68	0xbd9065b4	-0.07050648
69	0x3c86e8cd	0.01646843
70	0xbdc61b29	-0.09673149
71	0xbca71eeb	-0.020400485
72	0x3e03ccd2	0.12871101
73	0x3c06add8	0.0082201585
74	0xbd9cc0ba	-0.07653947
75	0x3cbe05c0	0.023196101
76	0x3b088557	0.002083143
77	0xbd223e85	-0.039610405
78	0xbc91c8d8	-0.017795965
79	0x3c3873f0	0.01125811
80	0xbb864ef9	-0.0040987697
81	0x3c74618e	0.014915837
82	0xbcbb762e	-0.0228835
83	0x3da78d94	0.08181301
84	0x3cb3b9b3	0.021939134
85	0x3c3db9cb	0.011579941
86	0xbdb61cd2	-0.08892216
87	0x3d8fa211	0.070133336
88	0x3da23e96	0.079220936
89	0x3d52f240	0.05150056
90	0xbcb60b1e	-0.022222098
91	0x3d30eb9e	0.043193452
92	0x3c00dffd	0.007865903
93	0xbdf25d66	-0.118342206
94	0xbd1b973b	-0.03798602
95	0x3c31ebd8	0.010859452
96	0x3daae159	0.08343763
97	0x3bc6ff4a	0.0060729133
98	0xbbe60936	-0.007020141
99	0x3d09580b	0.03353123
100	0xbbedf297	-0.007261585
101	0x3c833464	0.016016193
102	0x3d6be17e	0.057588093
103	0xbda81923	-0.082079194
104	0x3b8874fd	0.0041643367
105	0xbda3cd12	-0.079980984
106	0xbd85f9c2	-0.06541778
107	0xbc53e39d	-0.012932685
108	0xb8fea256	-0.00012141901
109	0xbd609338	-0.0548279
110	0xbb40be78	-0.0029410403
111	0x3bb2b56f	0.0054537575
112	0x3ca053d0	0.019571215
113	0xbdb76486	-0.0895472
114	0x3d52ef32	0.051497646
115	0xbe012723	-0.12612586
116	0x3d9ddbe4	0.077079564
117	0xbc3f8443	-0.0116892485
118	0x3cc61f9b	0.024184993
119	0x3d08d8a7	0.03340974
120	0xbd885291	-0.06656373
121	0xbcfe731b	-0.031060746
122	0x3b069651	0.0020536373
123	0x3c69c629	0.0142684365
124	0x3b4fd72a	0.003171394
125	0xbc79ac71	-0.015238867
126	0x3ca18882	0.019718412
127	0x3bb3cb77	0.0054869014
128	0x3b9c7080	0.004774153
129	0x3dc1a9fb	0.09456249
130	0x3d004c41	0.03132272
131	0x3ce074d8	0.027399465
132	0x3d23ed4e	0.040021233
133	0x3c2c513c	0.010517415
134	0xbce737c6	-0.028224837
135	0x3d283909	0.041070018
136	0x3d099603	0.033590328
137	0xbbf61fe5	-0.0075111263
138	0xbc24b310	-0.010052457
139	0x3d682938	0.056679934
140	0x3b51ee5b	0.003203294
141	0xbc40a03c	-0.011756953
142	0xbd0047a3	-0.031318318
143	0x3bfeb96d	0.0077735693
144	0xbc48e429	-0.012261429
145	0x3c89600f	0.016769437
146	0xbc638369	-0.013886311
147	0x3d610f10	0.054946005
148	0xbdf40202	-0.119144455
149	0x3aad55b0	0.0013224389
150	0x3d147a7c	0.036249623
151	0x3bccd71c	0.006251229
152	0x3db943a5	0.09046105
153	0x3d44062e	0.047857456
154	0xbd06ceff	-0.03291225
155	0x3d85785d	0.06517098
156	0xbb17f7f9	-0.0023188575
157	0xbd1112eb	-0.035418432
158	0xbd6201ab	-0.055177372
159	0x3bd2990d	0.0064269365
160	0xbe189201	-0.14899446
161	0xbd43ae0d	-0.04777341
162	0x3d9a10d6	0.075227425
163	0xbdcdf580	-0.10056591
164	0x3c274b27	0.010210789
165	0xbc8313dd	-0.016000682
166	0x3c595855	0.013265689
167	0x3d90393d	0.07042167
168	0xbddd2403	-0.10797884
169	0x3e059c78	0.1304797
170	0x3c96a98f	0.018391399
171	0x3d1beeb9	0.03806946
172	0x3b4d3e5d	0.003131769
173	0x3d92e1fd	0.0717201
174	0x3d34f07a	0.04417465
175	0x3a3a96ce	0.00071178086
176	0x3c9c6f99	0.019096183
177	0x3d60f101	0.05491734
178	0xbd37509a	-0.044754602
179	0x3d2b6890	0.041847765
180	0x3dd91d46	0.106012866
181	0x3c3b2c81	0.011424185
182	0x3c6a897e	0.014315007
183	0xbd0b6882	-0.034035213
184	0xbcea7d2f	-0.028624145
185	0xbdcf268e	-0.101147756
186	0xbd0fb6a5	-0.035086293
187	0x3d259938	0.040429324
188	0x3b3a3488	0.0028412659
189	0xbdc49aa0	-0.09599805
190	0xbcac655b	-0.021044424
191	0x3cdc4994	0.026890554
192	0xbdb6ac8c	-0.089196295
193	0xbb265d94	-0.0025385367
194	0xbd3e9d31	-0.04653663
195	0xbd9d503a	-0.076813176
196	0xbca8a433	-0.020586109
197	0x3aa3ae7a	0.0012487911
198	0x3d2ab140	0.041672945
199	0xbdb4b2b5	-0.08823148
200	0x3aca157e	0.0015417782
201	0x3d64e0d5	0.05587848
202	0xbc891110	-0.016731769
203	0xbd40eec8	-0.04710272
204	0xbc822439	-0.015886413
205	0x3d51ffa8	0.051269203
206	0x3db391ca	0.087680414
207	0xbc8804f8	-0.016603932
208	0xbd6f5b8e	-0.058436923
209	0xba7cb649	-0.00096402
210	0x3ca780b8	0.02044712
211	0xbde79b6d	-0.11308942
212	0xbd3bf296	-0.045885645
213	0xbc3922a7	-0.011299766
214	0xbd09db7c	-0.033656582
215	0x3d617401	0.05504227
216	0xbd7da5cb	-0.06192569
217	0x3d55d5fc	0.052206025
218	0x3b0d8652	0.0021594954
219	0xbcb2f84e	-0.021846917
220	0xb8fa33c1	-0.00011930569
221	0x3d7e0925	0.06202044
222	0xbcc65ca0	-0.024214089
223	0xbae28658	-0.0017282469
224	0x3e1ffcc4	0.15623766
225	0x3c94f321	0.01818234
226	0x3d4f8d88	0.050672084
227	0xbd828920	-0.06373811
228	0x3d6cab06	0.05778029
229	0x3c8c58ce	0.01713219
230	0xbbf6b754	-0.0075291786
231	0xbd6a87b2	-0.057258315
232	0xbc2a68df	-0.01040098
233	0xbdd1fa54	-0.102528244
234	0xbc8fe658	-0.017565891
235	0xbc93b7ca	-0.018031973
236	0x3b9cbde7	0.0047833803
237	0xbc2a2955	-0.010385831
238	0x3db44cd6	0.08803718
239	0x39f53072	0.00046766136
240	0x3db0ae4f	0.08626997
241	0x3df03c48	0.11730248
242	0xbdc84c9b	-0.09780236
243	0x3c731d64	0.01483855
244	0x3c4c156b	0.012456278
245	0x3c4a31fc	0.012341019
246	0x3cbb7009	0.022880571
247	0xbcd35380	-0.025796652
248	0x3da3fe01	0.08007432
249	0xbd0bcbee	-0.03413003
250	0xbd164ce9	-0.03669444
251	0x3c1b19f1	0.009466634
252	0xbb80086d	-0.0039072544
253	0xbdae6206	-0.0851479
254	0x3ce48ed4	0.027900137
255	0x3c375355	0.0111893015

onnx::MatMul_28 f4 [16, 2]
0	0xbc7c3b0b	-0.015394936
1	0xbad0a4e5	-0.0015918283
2	0x3c5ac460	0.0133524835
3	0x3b4a3fa8	0.0030860696
4	0xbb317837	-0.002707971
5	0xbc48f823	-0.012266192
6	0x3bbf5c18	0.005839836
7	0x39cc8604	0.00039009762
8	0x3c5adaf3	0.013357866
9	0x3bd224d8	0.0064130835
10	0x3ec79033	0.38977203
11	0xbef0f131	-0.47059014
12	0xbc051ef2	-0.008125054
13	0x3c26bd0d	0.010176909
14	0x3bd14d65	0.0063874
15	0x3ba2e0d8	0.004970651
16	0x3c0ed82b	0.008718531
17	0x3af7ecca	0.0018915173
18	0x3cab0592	0.02087668
19	0xbbb38c90	-0.005479403
20	0xbbc68510	-0.0060583428
21	0x3adaa6cc	0.001668179
22	0xbbe77d49	-0.0070644957
23	0x3bec9a69	0.0072205556
24	0x3ded9232	0.1160015
25	0x3e860413	0.26174983
26	0x3badb723	0.0053013726
27	0xbb32cd5c	-0.0027283048
28	0xbc8f4e11	-0.01749328
29	0x3ba6d6dc	0.005091531
30	0xbea62c10	-0.32455492
31	0xbdc540ea	-0.09631522
