model.onnx (onnx, 13217 bytes, 8 tensors)

model.0.0.bias f4 [64]
00000000: 2d84 1abe 38fb 5c3d 779d cbbc 9716 c8be
00000010: 5163 5d3e 6141 ec3c 237d 063e 4ffb 22be
00000020: f13a e33d ee79 0abe bfa0 613d 1563 773d
00000030: 41c3 253e 25ec ae3d 8071 d7ba 2acc 84bc
00000040: b852 80be b90c 99be 44de 4b3c b7f5 ea3d
00000050: 676a a3bd ef46 fabd 6563 83bd 473c f03c
00000060: 8c78 7b3d 8d06 833e f3a5 8ebd 79ba b5bd
00000070: 22ad 07bb cf34 9d3e 70d7 0e3e 4969 873d
00000080: f2fa acbe 06f9 8dbd 862b e0bd 53a8 7bbe
00000090: 51a0 12be d837 3e3c f8d2 1abe d7fe 273d
000000a0: 0767 49be 2e22 31be 76ab 393e 3405 4ebd
000000b0: b730 86be d732 233e 397e 24be 806d 44be
000000c0: 42c1 e13d 153a a6be 7fa7 03bd e9a9 823d
000000d0: 2946 b5be 5a60 f1bc e98d 183d ca72 af3d
000000e0: c8f1 653d 6184 883d 2f51 733e dc9b 5abe
000000f0: 2937 8cbe 24bb 6e3e c377 3d3c b70a 7dbc
-0.15089484 0.05395052 -0.024855359 -0.39079735 0.21619917 0.028839769 0.13133673 -0.15916179
0.110952266 -0.13523075 0.05508494 0.060397226 0.16187765 0.08541135 -0.0016437024 -0.016210634
-0.2506311 -0.2989252 0.012443129 0.11472648 -0.07979279 -0.12220561 -0.064154424 0.029325617
0.06139426 0.25590935 -0.06965246 -0.088734575 -0.002070256 0.30704352 0.1394937 0.066118784
-0.33785206 -0.06932263 -0.109458014 -0.2457593 -0.14318968 0.011609994 -0.1511954 0.04101452
-0.19668208 -0.17298195 0.18131813 -0.05029793 -0.2620904 0.15937363 -0.16063775 -0.19182396
0.11023189 -0.32466188 -0.03214216 0.06380064 -0.3540509 -0.02946489 0.03724471 0.08566816
0.056138784 0.06665874 0.23761438 -0.21348518 -0.27385834 0.23313576 0.011564198 -0.015444449

model.1.0.bias f4 [32]
00000000: da90 09bb 186d 0a3d 7630 eb3c 8ea7 9bbd
00000010: 7544 9abc 9599 f23c 23c0 03bd 19df 893c
00000020: 1ca2 d73d 211f 513d 239f 503c 88a7 693d
00000030: 30a8 45bd fae6 863d 0673 ca3c 4a75 c83d
00000040: 2051 a7bd e545 2e3d bb99 eb3c f8e3 5fbd
00000050: 3c8f c0bb 4696 b9bd fc50 8d3d 26e9 6ebd
00000060: 3234 173d b55c d1bb 2c74 193d 0893 6bbc
00000070: 46dc 6b3d daca 613d 6b6a 15be 7a3c f23c
-0.002099088 0.033795446 0.028709631 -0.07600318 -0.018831471 0.02961425 -0.032165658 0.016830014
0.10528967 0.051055077 0.012733254 0.057044536 -0.0482561 0.06587024 0.02471305 0.09787996
-0.0816977 0.042547125 0.028759828 -0.054660767 -0.00587645 -0.090618655 0.06900212 -0.058327816
0.03691501 -0.0063892254 0.037464306 -0.014378317 0.057583116 0.055125095 -0.14591376 0.029569853

model.2.0.bias f4 [16]
00000000: 9959 b4be 22d5 45be 2ef8 58bd aa26 32bd
00000010: d7ea ebbc 5752 89be abb3 a7be 1bc5 e83c
00000020: d0e0 443c 8ea2 51be 4d94 09bd 1265 2abd
00000030: 7e36 7a3c 0e62 e6bd 848c 12bd 5fff 8d3d
-0.35224608 -0.19319585 -0.052971058 -0.043493904 -0.028798504 -0.26820633 -0.32754263 0.0284143
0.01201649 -0.20472166 -0.033588696 -0.041600294 0.015271781 -0.11249171 -0.035778537 0.06933474

model.3.0.bias f4 [2]
00000000: eb3a 803e 74f3 803e
0.2504495 0.2518574

onnx::MatMul_25 f4 [4, 64]
00000000: d1cf 83be fa2f cb3c 93be f1bc 53e3 86be
00000010: 34b7 13bf 5945 c2be 2aeb 10bf ef3d 85bc
00000020: 248b 80be 0d4f 68be 0fa6 f4bc 5f6b 8f3c
00000030: 151f 0ebe 68dd cb3d 1a94 113d bb8d d7bd
00000040: e6c1 1b3e 99e2 113f c4fc a63d 71dd 84ba
00000050: ae27 7e3d 9571 bbbc ef31 f63c d728 46be
00000060: 6901 663d 5a7b 1fbe ca4b a93c a88c 67bc
00000070: 32e4 a93d b952 97be 23ce c33e 3c67 06be
00000080: c22f 4f3e aaa4 28bd bdf5 62bd 2da7 b63e
00000090: f479 113d 5f68 153e 408d 493f 629b b63d
000000a0: 2065 c33d 8e31 cabd ccf5 66be c1b2 a7bd
000000b0: c45c 7a3e 2ef0 62bd 41c5 1a3f 32a2 1f3e
000000c0: 4bfa 03bd e11a d0be 6eda 59be 2b62 d43d
000000d0: 336e 0a3e b1df 80bb 9028 8b3d 3ea8 7a3d
000000e0: 220c d93d dc2d 3b3d 710e 00bf 87b4 f13c
000000f0: bcfc b63e 5eac 203e 02f7 4cbe 817a 19bf
00000100: d43f 633e c2b3 233d e523 12be 57f6 0f3f
00000110: ad93 873c 8fc2 443e bc82 6ebe 181f 9abc
00000120: 8364 0e3d 7472 693d 5a44 e1bd b758 553d
00000130: 75dc a8bc 9901 4c3e 5d88 913c 5f34 003e
00000140: 0e3a 523d 3882 c73e dd53 383e 4ed2 d2bd
00000150: 71c2 603e 5c80 39bd a564 eabb 625a b2be
00000160: 2312 813d d654 c9be 3e73 0e3d a073 a0bd
00000170: 1632 8f3d e1eb 88be 2621 10bf 2d7e a0be
00000180: 0f74 173e 259c 09be 6b56 b7bd b3f9 dd3d
00000190: d784 1d3e 3d1d 133c 90bf 5e3e 43d6 373e
000001a0: e9ca a73e bd6f 19be 8573 d83d 512e 24be
000001b0: b186 b73e 57d2 fdbd 572c 533e 67ed 853e
000001c0: 06ad cdbd cf56 1c3e 8e79 a1be 9a48 783e
000001d0: 598d e83e aaa3 bb3b 976d c33d 9f05 b13d
000001e0: 0a64 7cbe 86fb 2a3c 2cae 04be bbcd 863e
000001f0: 1e2b 113e dc4d dfbe 8e28 c73e bb36 0e3f
00000200: 3625 a4be 725e a4bd 0124 433e 4916 4d3e
00000210: 7a18 ebbe f948 c4be 5801 80be 4d88 ef3e
00000220: 7df5 8cbd fa1b ea3e 8e85 3fbd 6794 5dbe
00000230: 3e6d fcbe 9c11 0bbf aef2 91bd ac4a c8bc
00000240: db65 413f 49c7 bb3d b451 9cbe 05c9 33be
00000250: 9914 9abd c3d8 d13e 06d3 ca3d 0555 0d3f
00000260: 6035 58be e573 8abe f92a e43d 2828 b43e
00000270: 863f cbbd e041 d4be a247 013f 96b6 563e
00000280: a31d 243f e742 b23e ea38 c93e 8ada b63e
00000290: 8be7 593e ac8d ce3d ad63 9f3e fa3b adbe
000002a0: f249 3b3e 9cf9 b03e d316 f3be 4dda 0dbe
000002b0: 65c6 843e 7078 90be 1c78 a33c 841c 303e
000002c0: 8543 1ebe 2f43 eb3e 6e58 4f3f 673d 03bf
000002d0: 3cbf e63e 73f9 203d 1629 87be 8df9 bdbe
000002e0: bf15 b13e a5e4 76be 52cc f1be e7eb 973e
000002f0: 229b cb3e 6636 8c3d f27e 2dbf 9544 1cbf
00000300: d1de 133f bc9f 20bd 756f 54bd fb37 5c3f
00000310: 6ec5 bebd f510 2c3e 77ee 883e 0369 debd
00000320: 7d3e 99be 5a1b 32be daa9 143c a389 db3c
00000330: d438 4f3e 3a5d 103e 4329 893d 73b1 88bd
00000340: 50c4 a6be 9bee 303f 79a0 d53d ab70 9e3c
00000350: 358b 3a3d 85d5 9abd 15d3 6dba 55b0 8bbe
00000360: df55 783d cc25 f23d 1013 afbc aae1 a0bd
00000370: 48d1 283d a238 90be 03f8 b5be 3530 103c
00000380: 757d 0e3e 580b d8bd 60f4 8ebd c456 813d
00000390: 6e9c a2bd 8e08 2cbe e877 8cbe a8e2 d13d
000003a0: 6ae2 03be c65a a83e ef65 ebbd ed36 2b3f
000003b0: 2514 cebd 8b5d cc3d 6a9e c43d 4136 a0bd
000003c0: f382 753d ca1f 0f3f eb9a 0abf da1b e43d
000003d0: fc58 703e a311 15bd 74e9 d43d 247a ea3d
000003e0: 40d0 a5be 8aee ac3d 1ac3 12bf e63c b8bd
000003f0: 92b7 5a3e 3363 e8be 116c 933e a048 d33d
-0.2574449 0.02480315 -0.029509818 -0.2634531 -0.5770142 -0.37943533 -0.5660883 -0.016264884
-0.25106156 -0.22686405 -0.02986434 0.017507253 -0.13879044 0.09954339 0.03554163 -0.1052508
0.15210685 0.56986386 0.0815368 -0.0010136795 0.06204956 -0.022881309 0.030053107 -0.19351517
0.05615369 -0.15574399 0.020666022 -0.014132656 0.08295478 -0.295553 0.38243207 -0.13125318
0.20233062 -0.04117266 -0.055410136 0.3567442 0.035516694 0.14590596 0.78731155 0.08916356
0.095407724 -0.09872733 -0.22554702 -0.081883915 0.2444945 -0.055404834 0.60457236 0.15589216
-0.03222112 -0.40645507 -0.2127473 0.103702866 0.135186 -0.003932916 0.06794846 0.061195605
0.10598017 0.04569803 -0.50022036 0.029505027 0.35739696 0.15690753 -0.20016101 -0.5995255
0.22192317 0.039966352 -0.14271505 0.5623526 0.01654991 0.19214843 -0.23292059 -0.018813655
0.034763824 0.056993917 -0.10999365 0.05208656 -0.020612935 0.19922484 0.017765218 0.12519978
0.051324897 0.38966537 0.18000741 -0.10294019 0.21949174 -0.04528843 -0.007153111 -0.34834582
0.063022874 -0.39322537 0.034777872 -0.07834554 0.06991975 -0.2674246 -0.5630058 -0.31346264
0.14790367 -0.1343847 -0.0895203 0.10838642 0.15382706 0.008979139 0.21752763 0.17952828
0.32771996 -0.14984031 0.105689086 -0.16033293 0.3584495 -0.12393635 0.20622383 0.26157686
-0.10042767 0.1526749 -0.3153805 0.24246445 0.4542034 0.0057262974 0.09542387 0.0864365
-0.24647537 0.010435944 -0.12957066 0.26328835 0.14176604 -0.4361409 0.38898128 0.5555226
-0.3205964 -0.080258265 0.19056703 0.20028032 -0.45917112 -0.38336924 -0.25001025 0.46783677
-0.06882761 0.4572447 -0.046758227 -0.21638642 -0.49302095 -0.54323745 -0.071263656 -0.024449669
0.75546044 0.0916887 -0.30531085 -0.17557152 -0.0752346 0.4098569 0.09903531 0.55207855
-0.21114111 -0.27041546 0.11141009 0.35186887 -0.099242255 -0.4145651 0.5049993 0.20968089
0.6410772 0.34816667 0.39301234 0.35713607 0.21279733 0.100856155 0.31130734 -0.3383482
0.18289927 0.34565437 -0.4747835 -0.13852806 0.25932613 -0.28216887 0.019954734 0.17198378
-0.15455444 0.45949695 0.8099431 -0.5126557 0.45067775 0.039300393 -0.26398534 -0.37104455
0.34586903 -0.24110658 -0.47226197 0.29672167 0.39766794 0.06846313 -0.6777183 -0.6104215
0.57761866 -0.039214835 -0.051864106 0.8602292 -0.093150005 0.16803344 0.26744434 -0.10859873
-0.29930487 -0.17393246 0.009073699 0.026799029 0.20236522 0.14098063 0.06697323 -0.06674471
-0.3257165 0.69114083 0.10430998 0.019340834 0.045542914 -0.07560257 -0.0009072286 -0.27282968
0.060628768 0.118236154 -0.021371394 -0.07855542 0.04121521 -0.28168207 -0.3554078 0.008800556
0.13915046 -0.10549039 -0.069802046 0.06315377 -0.07939993 -0.16800138 -0.2743523 0.102483094
-0.12879339 0.32881755 -0.11494052 0.66880685 -0.10062436 0.099787794 0.096005276 -0.07822848
0.059939336 0.5590788 -0.54142636 0.11138125 0.23471445 -0.036393773 0.1039609 0.11449078
-0.32385445 0.08443935 -0.5732895 -0.089959905 0.21359089 -0.45388183 0.28793386 0.103165865

onnx::MatMul_26 f4 [64, 32]
00000000: 6bfc d8bd 0e9c 5bbe 52f1 1fbe 4798 e33b
00000010: a11d 00bd 2230 94be 4874 9bbb afe5 e23b
00000020: 523c 1c3d c181 5f3d b980 823d be8d 0d3e
00000030: 5227 723b e4f7 adbd 95d0 eabd ff83 283e
00000040: 004b 443e 4a57 033e 793b 753e 5bd6 6bbd
00000050: a714 dbbd f1dc 8b3e 6d3d c13e d174 bbbd
00000060: 0027 613d 6115 6e3e 21a6 233d f638 3c3e
00000070: 0905 b63d 068b 8ebe 3ac9 7e3e fdc4 6b3c
00000080: 042a b1bc bb68 103e f8be 05bd f41a 27bd
00000090: 2eb2 97bd e14a 77bc 5c22 063c 2c43 f23c
000000a0: 8b5a 4ebd 2f2f 83bc d427 a03d e578 243e
000000b0: aacc 2dbe 7cc5 413e 5b18 7abd ab22 9b3d
000000c0: b36c d93d 7cce f63d ad21 843d 2123 93bd
000000d0: fe9e 293d 2cb4 02bc 0b59 adbd 2dec b8bd
000000e0: 1453 0d3d f057 34bc a870 eb3b b4d1 35be
000000f0: b262 413e f46e 61bc 442f 873d 4673 c1ba
00000100: e87a 13bd eb56 6cbe 3d71 9fbd 19a7 72be
00000110: 4886 4d3c d936 793d 619b c43c 7629 abbd
00000120: 5ddb 533c b865 20bb 1dbd 303c 927d f73a
00000130: e8cc 303e 7a5d 693c bb45 433d 20b6 393d
00000140: 953d b4bc bb98 33bc 97c3 55bc 80dd 4b3c
00000150: ff55 4c3e 198f 80bc 1e14 eabc bcbf 093d
00000160: e010 833c 6ab2 0f3e d753 203e 9ccd 283e
00000170: f89f 40bd eb58 9cbd 2368 1bbd bf44 42bd
00000180: ed83 dbbd c0b3 f3bd d262 ef3d e3c8 f4bc
00000190: f709 76be c543 02bf 9edc 9b3d 91a2 9e3c
000001a0: 12b7 c4bd 1f72 76bd c9d7 8b3d b5f7 67be
000001b0: 51eb 2d3d 772f 0dbe bf15 f1bc 9ddb f6bd
000001c0: a057 7cbd 392f 253e 8659 123f 7b11 7abd
000001d0: 9a13 6a3d f3b7 50be 5aa2 413f 4510 f3bc
000001e0: 57f2 063d 672f ea3e 4696 19be dc6c e23d
000001f0: 8eeb 4dbc 7351 323d 0cf7 71be 8f7a e1bd
00000200: 8f29 343d 0539 8d3c 9faf 3fbe 8e46 083e
00000210: 0f97 843d d6ff 85be cda4 5abd 4a20 883d
00000220: 111b ba3d 516a cbbd 1b6c 493c 7630 da3d
00000230: 6120 6fbd 797c 19be 2aaf f5bd 5b92 febd
00000240: 8b64 a73d 42e5 98bc 1819 293d 9fbe 39bc
00000250: 8c1e ba3d 2544 273e 9cf1 07be 8305 63bc
00000260: bbdd 0bbd 9d50 26be 5d1f 9fbb aadf e93d
00000270: 6319 c8bc 0d32 05bd a5a3 cd3d be1c 3abd
00000280: c241 0f3d bd98 ae3d 2442 d0bd 30b2 07bd
00000290: e1c9 ca3c 30b0 a1bd 05c3 d93d 5293 133e
000002a0: be39 99bd 5666 243e 305c 17bc b0d7 b93d
000002b0: 7b23 bc3d f723 803d dbbe 633d a393 1a3c
000002c0: ae4c 183e d9a0 fdbd e7ab e53d 6fc5 a13c
000002d0: a6ec 75be 43b9 1e3e 4fd0 d83c 10bd 07bd
000002e0: 731f 9d3d b00f 89bd b244 02bc fc18 95bc
000002f0: 3fff 0bbd 8fb0 e23d 08e0 693e 28e9 0f3d
00000300: ab51 05be 3b6f 333e d709 3cbe 5971 7d3d
00000310: bdf5 a83c 2c82 9ebd fbf2 123e 2ccd 7f3d
00000320: f992 2fbd c582 553b 7c93 823d 45bd e9bd
00000330: 6780 7c3c 612e 59bc 44bb c43c a9e5 0d3e
00000340: ba38 393e f037 303c bdca 043e 3a5c a5bc
00000350: 0b53 2ebb b1c3 6d3e db33 c03d d1f3 f6bd
00000360: 3678 2c3d dcbb b2bd 82b7 d6bc f583 a7bd
00000370: ccbe 8dbd 294e 74bd 5e9d 5a3d cd1e 163d
00000380: 86de 9d3d c961 883d 9f99 3bbe 0e8c bebd
00000390: 93c4 743d 4872 013c ca0f 593d 9a3e fc3d
000003a0: 8675 183d 8f84 c43d b4f0 7a3d 72e1 ba3d
000003b0: 41e5 1abe 660e 1cbd 102e 1a3d 9206 b2bd
000003c0: 3c58 5ebe 90a6 d23d b34d 423b ccbe c33b
000003d0: ad81 c9bc f7a3 9d3d 57df dcbd 39a6 84bd
000003e0: 145e 22be 7b0f 323e 39b8 c43d 9cb4 203e
000003f0: 36e6 c8bd b5a2 20bd 67cb 57be 12b8 68bd
-0.1059502 -0.21446249 -0.156194 0.006945643 -0.031278256 -0.28942972 -0.0047440864 0.006924353
0.038143463 0.054567102 0.06372208 0.13823602 0.0036949706 -0.08494547 -0.11465565 0.16456603
0.19169235 0.12826267 0.23948468 -0.057577472 -0.106972985 0.27317002 0.37742177 -0.0915314
0.054968834 0.23250343 0.039953355 0.18381104 0.08887679 -0.2784044 0.2488145 0.014390227
-0.02162648 0.14102452 -0.032652825 -0.04079719 -0.07407032 -0.015093536 0.008186903 0.029573046
-0.050379317 -0.01601371 0.078200966 0.16061743 -0.16972604 0.1892299 -0.061058383 0.07574972
0.10616436 0.120511025 0.06451736 -0.07184435 0.041411392 -0.007977527 -0.08464249 -0.09029422
0.034503058 -0.011007294 0.0071850605 -0.17755777 0.18885306 -0.013759363 0.06600812 -0.0014759086
-0.036005884 -0.23080032 -0.0778527 -0.23696555 0.012544222 0.060843322 0.023999872 -0.083575174
0.012930718 -0.0024474692 0.010787276 0.0018882027 0.17265666 0.014243478 0.047673922 0.045339704
-0.02200202 -0.010961707 -0.0130471205 0.012442946 0.1995468 -0.015693234 -0.028574046 0.033630118
0.015999258 0.14032903 0.15656982 0.16484684 -0.047027558 -0.07634147 -0.03794111 -0.047428843
-0.10718522 -0.11899519 0.1168877 -0.029880947 -0.24027239 -0.5088466 0.07610439 0.019364627
-0.096052304 -0.060167428 0.06828267 -0.22653086 0.042460743 -0.13787638 -0.029429315 -0.12053607
-0.061607003 0.16131295 0.5716785 -0.061051827 0.0571476 -0.20382671 0.75638354 -0.029670844
0.032945957 0.4573929 -0.14998731 0.110559195 -0.012568368 0.043534707 -0.23629397 -0.11009704
0.043984946 0.017239103 -0.18719338 0.13308164 0.06474125 -0.2617175 -0.053379823 0.06646784
0.09087194 -0.099323876 0.012293841 0.106537744 -0.05838049 -0.14988889 -0.119963005 -0.12430259
0.08173474 -0.018664006 0.041283697 -0.0113369515 0.090878576 0.16334589 -0.1327576 -0.013856295
-0.034147006 -0.16241689 -0.0048560337 0.11419614 -0.024426168 -0.032518435 0.10040978 -0.045437567
0.03497482 0.08525226 -0.10168865 -0.033128917 0.024754466 -0.07894933 0.106329 0.14411667
-0.074817166 0.16054663 -0.009238288 0.09074342 0.09186455 0.0625686 0.055601936 0.009434613
0.14873001 -0.12384195 0.112144284 0.019747464 -0.24016055 0.15500359 0.026466517 -0.03313929
0.07672014 -0.06692445 -0.007950949 -0.01820039 -0.03417897 0.11068832 0.22839367 0.035134465
-0.13019435 0.175229 -0.18363129 0.061875675 0.02062499 -0.07739672 0.14350502 0.062451527
-0.042864773 0.0032579165 0.06375787 -0.114130534 0.015411473 -0.0132556865 0.024015076 0.1385714
0.18088046 0.010755524 0.12967964 -0.020185579 -0.002659979 0.23219182 0.09384891 -0.12058223
0.04210683 -0.087272376 -0.02621055 -0.08179466 -0.06921157 -0.05964485 0.053372733 0.036650468
0.077084586 0.06659276 -0.1832032 -0.09304057 0.05975778 0.007900782 0.052993573 0.12316628
0.037221454 0.09595596 0.06126471 0.091250315 -0.15126516 -0.03809967 0.037641585 -0.086926594
-0.21713346 0.102856755 0.0029648363 0.0059736725 -0.024597967 0.076972894 -0.10784786 -0.06477017
-0.158562 0.17388718 0.0960545 0.15693897 -0.09809534 -0.03921767 -0.21073686 -0.056816168

onnx::MatMul_27 f4 [32, 16]
00000000: ec45 18bc 42ac f73d 0786 e5bd bcf4 543d
00000010: 8fb4 1fbc 678f 873c 52e4 19bd 38ba 95bd
00000020: 1dc3 633d e295 a8bd 6f2b a53d 602a 85bd
00000030: 6728 87bd 62b6 88bc d9ff c93b 6043 adbc
00000040: a61c d03d 131f 513d d87b 793c aa77 77bc
00000050: 6f9c 2d3d 0547 533c 9392 d2bd 5b9d 933d
00000060: a666 263d 9561 363d 2ca3 eebd f1be 743d
00000070: ead2 ef3c 819f 063e dc0e d03d 9c98 063d
00000080: f835 73be e217 30ba c458 493d 5a81 45be
00000090: 9144 7c3d 725c c13d a6c2 bfbe a9f9 3bbc
000000a0: 44c7 00be 3ea3 f2bd 4655 bdbb acf4 97bd
000000b0: 31ef f1bc 984b fcbd f420 2dbc fd1d 89bd
000000c0: 757f 843c c110 67bd 11b0 87bc fc78 84bc
000000d0: 117b 0c3e bb61 82bb c8e8 9b3b d9d7 be3d
000000e0: 4644 9f3d 292c ee3c dc2c c53d c205 c5bd
000000f0: e631 08bc 5170 0dbc 9cf5 10bd dc93 9fba
00000100: 252a c43c 97b8 4fbe 0df1 debd ec4c a03d
00000110: f37a 59bd 8dd6 cabb a9a4 45bd 84d0 0dbb
00000120: ae5f 563d b90a 103e 716b 343d 83fe a33d
00000130: 2022 83bd 6022 e73c 71c6 0c3e 1d75 a2bb
00000140: ce18 60be 5f42 e0bd 4b07 93bc aa87 9abe
00000150: 1641 183c ea5d a03e f07a f9bd c310 373d
00000160: e437 453e bb07 313e 63c1 ce3c 2bf3 403d
00000170: ed22 6f3c e17c 04bd b746 0f3e 23e5 7ebe
00000180: fadc c9bc 4ca7 523c 0206 bebd 789a 08bd
00000190: a537 89bd 8392 c43c 2471 6e3d be48 8c3c
000001a0: 7222 193d 1918 86bd e0b5 f13b d58b c63d
000001b0: 4eae 733d 55bd ee3c fb02 ad3d e6cb 1ebb
000001c0: 2068 dbbc e3db 223e f846 9e3c 3aca dfbd
000001d0: b7b3 44bb b473 d53c b49c cb3d 6330 bc3a
000001e0: 6ccd cc3c cc39 01be 4556 9abd 2d09 013d
000001f0: a807 c53c 89fd 2ebd c72f ebbc b441 513d
00000200: e19b 893d e2d0 60bb e78a fdbd 37e7 65bd
00000210: d5f8 4d3c 10fe 603d 786a b53d 35ee 23be
00000220: 1efa 8aba 8f3d 04be da6e 9f3d 9e9b 833d
00000230: 8fcb 21be 8c46 c3bd d281 7b3d ee52 293d
00000240: 81f1 443c 44c8 8fbd a1c0 9cbd 8c2f 47bd
00000250: a44d 7f3d 846c abbc 1dee e53d 79bb 3a3c
00000260: 9bea d43c 2fcf 333e d4bc 923d cea6 a93c
00000270: d0c6 13bc 65ba bbbd d7b0 84bd 6be9 2c3d
00000280: 928f db3d 8b30 f6bd aadb ecbd 53a9 933b
00000290: d7c0 cfbd 0702 513a 1df9 bcbd c6d0 a23c
000002a0: 057a 6ebe e312 0bbd 5b10 07be 7a76 f73c
000002b0: 7316 c2bc d1e3 08be 53bf 543b 38ff 253d
000002c0: 9836 aabc a228 f73d 3037 2cbc aa9c a73d
000002d0: 6d80 8a3d 149d 3fbc 02d6 cdbd 9e6b 083d
000002e0: 9f3c a6bd c3a2 b43c 1fab cdbd 5943 4a3c
000002f0: 0c9f ca3d be66 c6bd 53d9 a43d bac5 273d
00000300: 1894 b83d ad02 e7bd c227 cfbc 9749 7ebd
00000310: 61e4 38bd b058 ba3c 11e4 9dbc 9272 803d
00000320: d051 dcbc bbd8 f1bc fd58 ca3d 21a3 543d
00000330: bb00 2abc 2bfb 03bd cb8c 95bd f2c3 b93c
00000340: 9dea b83d 0c40 38bd 0a92 d23c 4cec 833d
00000350: 60ee 2a3c db89 1dbd c9fd 2bbe de60 95bd
00000360: 0951 413b 0c42 163e 1530 56bd f0f8 3b3c
00000370: bf28 1e3d 3a5c 33bc 1aba d13d e991 0d3d
00000380: cc3c ed3c 6e26 d23d 8c9f 0cbe f63a 15bd
00000390: 3e0c b63d 4e63 613c 077e 813d 23e7 c33d
000003a0: 25f6 60be 86ce 71bd 5295 523d 1d5f 05be
000003b0: 7a79 fe3c 6a99 3bbe 95d2 253d ca0e 9c3d
000003c0: 12d5 8cbc 2ddb d63d 4f95 e43c d80c c0bd
000003d0: 21cd fdbc 95eb bdbc f84b b93d a21a 4ebd
000003e0: 7767 ac3c b94a 93bd 5256 6dbd eca9 aebc
000003f0: 59e8 74bd 8244 5f3d a271 96bd 7649 50bd
-0.009294014 0.120934024 -0.11207204 0.05199121 -0.009747638 0.016547872 -0.03757126 -0.07310909
0.055605996 -0.08231713 0.08064925 -0.06502223 -0.06599503 -0.01668853 0.0061645326 -0.021150291
0.10161714 0.051055025 0.015227281 -0.015104214 0.042385515 0.01289535 -0.10281863 0.072077475
0.040625237 0.044526655 -0.11652216 0.05975241 0.029275376 0.13146783 0.10159084 0.032860383
-0.23751056 -0.0006717426 0.04915692 -0.19287625 0.061588828 0.09441461 -0.37453192 -0.011473098
-0.12576014 -0.11847542 -0.0057779877 -0.07419714 -0.029533 -0.12319106 -0.010566939 -0.06695173
0.016174057 -0.056412462 -0.016563447 -0.016170971 0.13718821 -0.0039789355 0.0047579743 0.093185134
0.07776694 0.029073792 0.09627697 -0.09620239 -0.008312678 -0.008632735 -0.03539048 -0.0012174803
0.023945877 -0.20285259 -0.108858205 0.07827172 -0.05309577 -0.006190127 -0.048252735 -0.0021639178
0.05233734 0.1406659 0.044047777 0.08007529 -0.06402993 0.028214633 0.13747574 -0.0049578086
-0.21884462 -0.10950159 -0.017947813 -0.30181628 0.009292861 0.3132165 -0.121816516 0.04469372
0.19259602 0.17288105 0.025238698 0.047106903 0.014595729 -0.032345656 0.1399182 -0.24892096
-0.024641503 0.0128572695 -0.0927849 -0.033350438 -0.067000665 0.023995643 0.058213368 0.01712453
0.037386365 -0.06547565 0.0073764175 0.096946396 0.0594924 0.029143015 0.08447834 -0.002423042
-0.02678305 0.15904193 0.01932095 -0.109272435 -0.0030014345 0.026056148 0.09941998 0.0014357682
0.025000297 -0.12619704 -0.07535986 0.03150289 0.024051502 -0.04272226 -0.028709305 0.05108805
0.06719185 -0.0034304191 -0.12380009 -0.056128707 0.012571533 0.054929793 0.08858198 -0.16008838
-0.0010603105 -0.12914108 0.07784815 0.06426166 -0.15800308 -0.0953494 0.061403103 0.041338854
0.01202047 -0.070206195 -0.076539285 -0.04862933 0.062329903 -0.020925768 0.11227057 0.011397236
0.025990775 0.17559503 0.07164922 0.020709421 -0.009019569 -0.09166411 -0.06479042 0.042214792
0.10720743 -0.120209776 -0.11565335 0.004506269 -0.10144203 0.00079730194 -0.09227202 0.019874942
-0.23288734 -0.03395356 -0.13189833 0.030207861 -0.023692345 -0.13368155 0.003246267 0.0405266
-0.020777985 0.12068297 -0.010511205 0.08184178 0.067627765 -0.011695165 -0.100505844 0.033305757
-0.08117031 0.022050267 -0.100424044 0.0123451585 0.09893617 -0.09687565 0.08049264 0.04096005
0.09012622 -0.11279807 -0.025287513 -0.0620819 -0.045139674 0.022747368 -0.01927379 0.062718526
-0.02689448 -0.02952229 0.098802544 0.051913384 -0.010376151 -0.032221954 -0.07302245 0.022676442
0.09029124 -0.044982955 0.025704402 0.064415544 0.01043281 -0.038461547 -0.1679603 -0.072938666
0.0029497764 0.14673632 -0.05229195 0.011472926 0.038613077 -0.0109472815 0.10240574 0.03456298
0.028959654 0.10261236 -0.13732737 -0.036433183 0.08889054 0.013756586 0.06322866 0.0956557
-0.21968897 -0.059034847 0.051411934 -0.13024564 0.031063784 -0.18320242 0.04048403 0.07620008
-0.017191444 0.10491023 0.027903227 -0.0937745 -0.030981602 -0.023183623 0.09047693 -0.050318368
0.02104543 -0.071919866 -0.05794365 -0.02132126 -0.059791896 0.054508694 -0.073458925 -0.050851308

onnx::MatMul_28 f4 [16, 2]
00000000: f866 17be 947d 2abe 7948 bbbc d45e d5bd
00000010: 3f33 9fba 732c 543b d81a 9cbd 9034 9d3c
00000020: 5442 203b 8d97 82bb dffa 93bc 10d5 d2be
00000030: e3ba 16be 7beb abbd d838 933c f152 cd3c
00000040: 68db 423b 64a2 003d 9a0e a43a 5a88 2abe
00000050: f515 5fbc ad27 8eba baf0 643b 8940 573b
00000060: d877 10bc fef8 17bc 7f16 ccbc 07d9 bc3c
00000070: 13d1 943b 4241 c63b 5834 c4bd 62e9 ca3d
-0.14785373 -0.16649467 -0.022861706 -0.10418478 -0.001214601 0.0032375127 -0.076223075 0.019190103
0.0024453597 -0.0039853514 -0.01806396 -0.4117818 -0.14719729 -0.08394524 0.017971441 0.025063964
0.0029732827 0.031404868 0.0012516559 -0.16653576 -0.013616075 -0.0010845565 0.0034933523 0.0032844862
-0.0088176355 -0.009275673 -0.02491307 0.023052705 0.004541525 0.00605026 -0.09580296 0.099077955
