rl_best_model.pt (torch, 32833 bytes, 10 tensors)

sigma f4 [2]
0.01 0.01
00000000: 0ad7 233c 0ad7 233c

weight f4 [64, 4]
0.025138794 -0.3404095 -0.17823476 0.36635816 -0.15723823 0.10642371 -0.17496924 -0.06538966
0.22831462 -0.3455529 -0.30962387 -0.23630165 -0.23007199 -0.026812263 -0.2077493 0.4427975
-0.18970266 -0.357416 0.48535264 -0.3639758 0.4204488 0.42232767 0.17616007 -0.10806768
0.24908444 0.3782942 0.3925299 -0.1987412 -0.024577323 0.109735616 -0.08094701 -0.11230482
-0.2567115 -0.36865294 -0.10384951 -0.42037988 0.24680687 -0.23302902 -0.30043927 0.33012486
0.30650938 0.26210174 0.012738776 -0.35659623 -0.035268974 -0.043239888 -0.03019722 -0.1646438
-0.36105716 0.3920359 -0.31418052 0.22132696 0.16310227 0.20088403 0.38072136 -0.19582415
-0.30325666 -0.49883586 -0.03592455 0.21303557 -0.0056987577 -0.31181192 0.36170995 0.37997457
-0.0032162357 0.07112738 0.12813124 0.086008124 0.07392374 -0.05842706 -0.19690476 -0.02380411
0.28017676 0.45553315 -0.36524725 -0.21709463 0.32291922 0.3774824 0.33200613 -0.28571823
-0.07596839 0.015429056 -0.34741256 -0.36790466 0.25848177 0.33344623 -0.056306295 0.38565764
0.16698402 -0.45451486 -0.095401585 -0.3007719 -0.3615723 -0.022737816 0.3283521 -0.04517917
0.28891376 -0.3428631 -0.05308695 0.335022 -0.027591402 0.06385314 0.37025598 -0.1306366
-0.53699523 -0.33367354 0.1916521 0.25085682 -0.27709788 -0.4078698 -0.36343896 0.20934932
0.25129196 -0.48202857 0.041978512 0.00083919097 0.0125100715 -0.23542899 -0.026136346 0.33887646
-0.48704267 0.25497514 -0.3629889 0.47656986 0.45313644 -0.13477609 -0.0288564 0.41292447
0.1496219 -0.17086247 0.26315483 0.36145332 -0.070465095 -0.40858582 -0.5171408 -0.14009841
0.15941022 -0.27485257 0.3382758 0.012403003 0.19650273 0.3403525 -0.23124588 0.027181447
0.412017 -0.21920753 0.45727414 -0.035255637 -0.28081393 0.085504405 0.36231068 -0.3707357
-0.12839499 0.19290428 -0.374251 0.18264748 -0.35231784 0.03842201 0.005988893 0.5267205
0.09410244 0.06801631 0.3354217 -0.2447937 -0.24287981 0.08882623 -0.18455043 -0.11700022
0.34955156 -0.39757648 -0.20195472 -0.031796407 -0.33843097 -0.30392352 0.022006335 0.113558166
-0.42649934 -0.3905054 0.39631382 0.014458426 0.43477502 0.07290683 0.4009093 0.38701382
0.07709911 -0.056280933 0.34800768 0.33232296 -0.05701214 -0.22007799 0.2229649 0.34278712
-0.2831129 0.23763196 -0.041131653 0.3543841 -0.30483717 -0.057502896 0.38730726 -0.21266036
-0.2614989 -0.2141319 0.07805646 0.043462303 0.43985635 0.24888079 -0.2711874 -0.30990532
0.003985926 -0.2627013 -0.1748577 0.24741212 0.1352888 -0.32691813 0.37384075 0.4458588
0.111039065 0.060625367 -0.09786126 0.055786476 -0.40642312 -0.26168212 0.06640272 0.4376428
0.30574358 0.4136913 0.43647555 -0.3571747 -0.092726745 0.35889822 -0.49048406 0.39414224
-0.48798546 0.4344359 0.4578366 -0.4513706 -0.34829807 -0.039304104 -0.03758323 -0.39951414
0.2142897 -0.3578386 -0.11959708 -0.04224975 0.124831095 -0.37618372 0.18981928 0.4344177
-0.16824637 -0.020556625 0.06610327 -0.033232935 -0.30814973 -0.07292001 -0.13403493 -0.29508194
00000000: dfef cd3c 274a aebe 2c83 36be 4c93 bb3e
00000010: 0f03 21be adf4 d93d 232b 33be 04eb 85bd
00000020: 4fcb 693e 4fec b0be 0587 9ebe 0ff9 71be
00000030: fe97 6bbe 64a5 dbbc 3cbc 54be 5bb6 e23e
00000040: 6a41 42be 3bff b6be 2480 f83e 095b babe
00000050: 1145 d73e 553b d83e 4e63 343e 9652 ddbd
00000060: fe0f 7f3e c7af c13e aef9 c83e d082 4bbe
00000070: 6256 c9bc 11bd e03d 8cc7 a5bd 1200 e6bd
00000080: b16f 83be 14c0 bcbe 0daf d4bd 083c d7be
00000090: f1ba 7c3e 299f 6ebe 2dd3 99be 2006 a93e
000000a0: ccee 9c3e 3332 863e 4db6 503c c893 b6be
000000b0: 3376 10bd 4f1c 31bd 2960 f7bc 6298 28be
000000c0: 7cdc b8be eeb8 c83e 45dc a0be 89a3 623e
000000d0: 4804 273e 8bb4 4d3e e9ed c23e 2086 48be
000000e0: 7544 9bbe 6a67 ffbe 9f25 13bd ff25 5a3e
000000f0: a5bc babb d0a5 9fbe 0c32 b93e 078c c23e
00000100: 7bc7 52bb 3bab 913d d634 033e 0725 b03d
00000110: 5465 973d 3651 6fbd 67a1 49be d600 c3bc
00000120: 5473 8f3e a43b e93e b001 bbbe 0e4e 5ebe
00000130: ab55 a53e 6045 c13e b5fc a93e a949 92be
00000140: 5195 9bbd 27ca 7c3c 0fe0 b1be 005e bcbe
00000150: b957 843e 77b9 aa3e 6ea1 66bd eb74 c53e
00000160: dcfd 2a3e 2cb6 e8be e861 c3bd c6fe 99be
00000170: 0120 b9be a844 babc c41d a83e cb0d 39bd
00000180: 81ec 933e c18b afbe b471 59bd 0188 ab3e
00000190: 5d07 e2bc 6fc5 823d 3192 bd3e 9ac5 05be
000001a0: 8578 09bf 42d7 aabe 7340 443e 4e70 803e
000001b0: c6df 8dbe 4fd4 d0be ac14 babe ab5f 563e
000001c0: 57a9 803e 73cc f6be a9f1 2b3d 27fd 5b3a
000001d0: 0bf7 4c3c 4c14 71be e41b d6bc 3781 ad3e
000001e0: a85d f9be 1a8c 823e aed9 b9be f700 f43e
000001f0: 8001 e83e be02 0abe 4264 ecbc d66a d33e
00000200: 7c36 193e 92f6 2ebe 3bbc 863e 6910 b93e
00000210: 0150 90bd 2932 d1be 5763 04bf f575 0fbe
00000220: 6f3c 233e 7ab9 8cbe 7c32 ad3e f735 4b3c
00000230: 0338 493e af42 ae3e b8cb 6cbe a0ab de3c
00000240: e4f3 d23e f077 60be d61f ea3e 3768 10bd
00000250: d8c6 8fbe ef1c af3d c980 b93e 12d1 bdbe
00000260: fa79 03be b388 453e d49d bfbe f107 3b3e
00000270: 0163 b4be 6660 1d3d 7a3e c43b 28d7 063f
00000280: c8b8 c03d 234c 8b3d 65bc ab3e 33ab 7abe
00000290: 7cb5 78be 87ea b53d cafa 3cbe d09d efbd
000002a0: 6cf8 b23e 258f cbbe 38cd 4ebe f33c 02bd
000002b0: d346 adbe dd9b 9bbe a146 b43c 2f91 e83d
000002c0: 1f5e dabe 53f0 c7be a5e9 ca3e 09e3 6c3c
000002d0: d59a de3e 2d50 953d fc43 cd3e ad26 c63e
000002e0: 23e6 9d3d d686 66bd 102e b23e 3c26 aa3e
000002f0: 9085 69bd 205c 61be e950 643e cb81 af3e
00000300: 2df4 90be cb55 733e aa79 28bd d571 b53e
00000310: 9e13 9cbe 2888 6bbd 234d c63e a3c3 59be
00000320: 2fe3 85be 6545 5bbe 11dc 9f3d 8705 323d
00000330: da34 e13e 9bda 7e3e 13d9 8abe e9ab 9ebe
00000340: 5f9c 823b c980 86be e60d 33be 9a59 7d3e
00000350: 2689 0a3e d061 a7be 0e68 bf3e 9b47 e43e
00000360: 7368 e33d 4e52 783d 7c6b c8bd 5c80 643d
00000370: b116 d0be 33fb 85be 26fe 873d b812 e03e
00000380: 6c8a 9c3e 59cf d33e b979 df3e 9adf b6be
00000390: 85e7 bdbd 82c1 b73e ba20 fbbe 03cd c93e
000003a0: 3bd9 f9be 626e de3e 8f69 ea3e 0c1a e7be
000003b0: 2054 b2be 57fd 20bd dff0 19bd 1e8d ccbe
000003c0: c26e 5b3e 9f36 b7be 50ef f4bd 130e 2dbd
000003d0: 72a7 ff3d 279b c0be fc5f 423e ff6b de3e
000003e0: c748 2cbe 5e66 a8bc 2761 873d 421f 08bd
000003f0: cdc5 9dbe 1657 95bd 7440 09be fb14 97be

bias f4 [64]
-0.4593623 0.42732376 0.20137616 -0.08601602 -0.45063123 0.2845726 -0.15517393 0.09582187
-0.30998316 -0.03896975 -0.02679055 0.29635903 0.2765132 0.23055768 -0.07803546 0.19008127
-0.06634259 0.22580434 0.36688104 0.31507868 0.29227597 -0.4171477 -0.34295 -0.03898072
0.14942427 -0.42553756 -0.086561956 -0.17313325 0.22574618 -0.4271131 0.15803845 0.29348668
0.058121286 -0.048156492 -0.117953874 0.009325911 -0.4234724 -0.29373506 0.29965907 0.3068741
0.4388437 0.041593093 -0.178256 -0.4587187 0.19025832 -0.008656538 0.19763127 -0.4352902
-0.3396844 0.33770895 0.105127476 0.2866554 0.21574607 0.4547235 0.3285251 0.3027846
0.17357573 -0.2623038 -0.26797342 -0.32564783 -0.17909463 0.19950809 -0.11778787 -0.30910715
00000000: 8931 ebbe 2eca da3e 8d35 4e3e 2b29 b0bd
00000010: 23b9 e6be 80b3 913e eae5 1ebe 423e c43d
00000020: 1db6 9ebe bf9e 1fbd db77 dbbc 5fbc 973e
00000030: 2393 8d3e 5017 6c3e 0ed1 9fbd aaa4 423e
00000040: a0de 87bd 4139 673e d5d7 bb3e fe51 a13e
00000050: 32a5 953e 6294 d5be 2497 afbe 3faa 1fbd
00000060: ad02 193e 0fe0 d9be 6547 b1bd d849 31be
00000070: 022a 673e 91ae dabe d5d4 213e e343 963e
00000080: 9610 6e3d be3f 45bd cd91 f1bd b5cb 183c
00000090: 60d1 d8be 7164 96be ea6c 993e 9a1e 9d3e
000000a0: 1fb0 e03e 855d 2a3d be88 36be 2ddd eabe
000000b0: 14d3 423e 27d4 0dbc da5f 4a3e 5bde debe
000000c0: 1deb adbe 30e8 ac3e 134d d73d 7fc4 923e
000000d0: 8aec 5c3e 85d1 e83e 7134 a83e 9506 9b3e
000000e0: d6bd 313e af4c 86be d033 89be 50bb a6be
000000f0: 9564 37be d94b 4c3e c43a f1bd 4b43 9ebe

weight f4 [32, 64]
-0.047766928 0.06745674 0.08690337 -0.028900364 -0.101691134 0.08301971 0.038624767 0.042597424
0.095575534 -0.063943215 -0.062159542 0.027689468 -0.08193554 -0.13340046 0.11065852 -0.055362694
0.04854911 0.11353291 0.098937295 0.10951837 0.067920186 0.0023809765 0.1435615 -0.050862484
0.086996034 0.11903795 -0.05244427 0.070461 -0.07307551 0.049131654 -0.08611479 -0.017879443
0.08275293 0.023489323 0.15940839 -0.08851562 0.11037964 -0.11610354 0.0003899433 -0.10531983
-0.1105705 -0.12642477 -0.06692595 0.1263651 0.11411778 0.042087846 -0.118404716 0.009546652
0.024805741 0.06817364 -0.029507568 0.04399889 -0.105618104 0.1231839 -0.050428387 -0.105698936
0.07092168 -0.08782782 0.09683842 -0.054085243 0.09599978 0.15515596 0.044721447 0.03126168
-0.08220686 -0.052779768 -0.11603744 0.054190878 -0.10932807 0.07981725 0.10394829 -0.12106897
-0.017586997 -0.02792727 -0.054900922 0.024248486 -0.03249668 -0.07262087 -0.028154016 0.07548797
0.009452171 0.0526158 0.017637033 0.06344917 -0.114551194 -0.0025814977 -0.03707455 0.016615627
-0.0034618294 0.072286636 0.080189385 -0.11209407 -0.11245172 0.112500206 0.06768323 0.06848497
0.012975461 0.046945695 -0.05609363 0.110247 -0.10250898 -0.05386184 -0.10279635 -0.106247455
-0.06514835 0.12527776 0.037075534 0.011008133 -0.08693178 -0.11406362 -0.0031621798 0.08883965
0.13886286 0.07403337 0.012494587 -0.13346611 0.030248025 -0.145497 -0.017314965 0.09487525
-0.041353676 -0.044406425 -0.010360068 0.028977437 0.0443589 0.08107624 0.042798877 0.08374574
0.083282515 -0.029063217 0.15217268 -0.044896588 0.04008726 -0.06496048 0.012075406 0.03801628
-0.014060417 0.021262392 -0.103890896 -0.00075509754 -0.09993904 0.052379332 -0.014296732 0.045242734
-0.00032384897 0.009861831 0.031297784 -0.0899301 -0.0037317907 -0.0679898 0.0035859507 -0.04042269
-0.035606377 -0.06530085 0.12516908 0.045881204 0.00475532 0.107014745 -0.10758631 -0.081922494
0.04298541 0.12636673 -0.06476265 -0.11164032 -0.07534222 -0.04088965 -0.036143113 0.13445607
-0.023413664 -0.09098698 0.11600887 0.07890201 0.18706237 0.09320128 0.10440533 0.008135094
-0.10380543 -0.005702681 -0.0069514415 -0.007425721 -0.03006958 0.052394178 -0.07970444 0.037674133
0.039953995 -0.011852488 -0.029745204 -0.02494679 -0.035570554 -0.04116037 0.13047081 -0.09482467
0.07500912 0.00816794 -0.15471302 0.07148262 -0.01906493 -0.03706503 0.035878222 -0.09612836
-0.027558155 -0.14554186 0.06522463 -0.12852016 0.08581903 0.11215706 0.008982967 0.06416191
-0.055541676 0.05557748 0.089722894 -0.07591921 -0.12382559 0.01433797 -0.057455696 -0.028735284
0.08213309 -0.07753344 -0.04674609 -0.027384456 -0.13628623 -0.010705213 0.02462566 0.10075524
-0.091986686 -0.015857857 0.023556702 0.05244386 -0.12395715 -0.08263496 0.11274521 -0.010444512
-0.021273427 -0.0986935 0.027918555 0.0063588773 0.009695774 0.0826065 -0.039874174 -0.09600827
0.099851266 0.062076528 0.052725226 -0.09098862 -0.124697365 -0.09287693 -0.10823824 0.00025070936
0.03855651 0.009610567 0.053542383 -0.042138968 0.07425073 0.083294354 0.0987255 -0.10060273
00000000: 41a7 43bd c226 8a3d 65fa b13d 75c0 ecbc
00000010: 7143 d0bd 3d06 aa3d 0135 1e3d a37a 2e3d
00000020: 1bbd c33d a9f4 82bd 019b 7ebd 06d5 e23c
00000030: d2cd a7bd 219a 08be efa0 e23d fec3 62bd
00000040: 6edb 463d f183 e83d a39f ca3d 2b4b e03d
00000050: bd19 8b3d 280a 1c3b c901 133e 2e55 50bd
00000060: fa2a b23d 2bca f33d cecf 56bd db4d 903d
00000070: 9da8 95bd 463e 493d f35c b0bd e977 92bc
00000080: 5e7a a93d ae6c c03c f43b 233e ad47 b5bd
00000090: b80e e23d b1c7 edbd 4e71 cc39 ecb1 d7bd
000000a0: c972 e2bd 7f75 01be 7910 89bd da65 013e
000000b0: 95b6 e93d 4e64 2c3d 2c7e f2bd 9069 1c3c
000000c0: 6935 cb3c 9f9e 8b3d dbb9 f1bc 2e38 343d
000000d0: 4e4e d8bd d747 fc3d ff8d 4ebd af78 d8bd
000000e0: 633f 913d 12df b3bd 3953 c63d 7d88 5dbd
000000f0: 889b c43d 34e1 1e3e d62d 373d 3f0c 003d
00000100: 125c a8bd 992f 58bd 0aa5 edbd 41f7 5d3d
00000110: 65e7 dfbd 3a77 a33d d7e2 d43d 02f3 f7bd
00000120: 9b12 90bc bbc7 e4bc cadf 60bd c3a4 c63c
00000130: 3d1b 05bd 40ba 94bd 40a3 e6bc 7099 9a3d
00000140: 47dd 1a3c aa83 573d 8a7b 903c a3f1 813d
00000150: d199 eabd 582e 29bb 7cdb 17bd 7f1d 883c
00000160: dcdf 62bb 040b 943d 553a a43d 9391 e5bd
00000170: 164d e6bd 8266 e63d 819d 8a3d d941 8c3d
00000180: 0797 543c 214a 403d 6fc2 65bd 2ec9 e13d
00000190: 3af0 d1bd 3c9e 5cbd e586 d2bd 4498 d9bd
000001a0: 806c 85bd d048 003e 84dc 173d 755b 343c
000001b0: 4a09 b2bd 309a e9bd 933c 4fbb 90f1 b53d
000001c0: 1132 0e3e cf9e 973d 19b6 4c3c 57ab 08be
000001d0: b5ca f73c 2afd 14be 1dd8 8dbc f44d c23d
000001e0: 7962 29bd 83e3 35bd 46bd 29bc 1762 ed3c
000001f0: aeb1 353d 4d0b a63d e04d 2f3d e382 ab3d
00000200: 0690 aa3d fc15 eebc 28d3 1b3e 7ce5 37bd
00000210: 8a32 243d 000a 85bd ecd7 453c f5b6 1b3d
00000220: aa5d 66bc 782e ae3c c0c4 d4bd bdf1 45ba
00000230: d7ac ccbd b68b 563d d73c 6abc 7250 393d
00000240: 46ca a9b9 8493 213c 1b32 003d 462d b8bd
00000250: 0f91 74bb 3c3e 8bbd 4502 6b3b 4392 25bd
00000260: fed7 11bd 74bc 85bd 532c 003e eeed 3b3d
00000270: 84d2 9b3b 8c2a db3d 3656 dcbd fbc6 a7bd
00000280: 7811 303d 4866 013e 48a2 84bd aea3 e4bd
00000290: 064d 9abd e87b 27bd cd0a 14bd daae 093e
000002a0: 03ce bfbc 6257 babd 0f96 ed3d 6197 a13d
000002b0: 478d 3f3e 50e0 be3d 76d2 d53d 0f49 053c
000002c0: f197 d4bd 8edd babb ebc8 e3bb 7653 f3bb
000002d0: 7b54 f6bc 479b 563d 153c a3bd 3150 1a3d
000002e0: cda6 233d f030 42bc 37ac f3bc 365d ccbc
000002f0: 6eb2 11bd c797 28bd 249a 053e 7033 c2bd
00000300: 629e 993d d3d2 053c 176d 1ebe 7b65 923d
00000310: 0e2e 9cbc 80d1 17bd 0bf5 123d f2de c4bd
00000320: a4c1 e1bc ed08 15be 7e94 853d ca9a 03be
00000330: e3c1 af3d 9ab2 e53d 4b2d 133c 5267 833d
00000340: ab7f 63bd 36a5 633d a3c0 b73d 887b 9bbd
00000350: 4598 fdbd cee9 6a3c aa56 6bbd 4266 ebbc
00000360: 6535 a83d dac9 9ebd d478 3fbd 5e55 e0bc
00000370: 9e8e 0bbe eb64 2fbc c1bb c93c c358 ce3d
00000380: 8463 bcbd 56e8 81bc fcf9 c03c 5fcf 563d
00000390: 3fdd fdbd 853c a9bd f6e6 e63d 751f 2bbc
000003a0: 9c45 aebc d11f cabd 74b5 e43c 215e d03b
000003b0: 06db 1e3c 992d a93d 1a53 23bd fc9f c4bd
000003c0: d27e cc3d f543 7e3d 68f6 573d 3e58 babd
000003d0: 5561 ffbd 4336 bebd 03ac ddbd a471 8339
000003e0: 6eed 1d3d a475 1d3c 424f 5b3d e999 2cbd
000003f0: c410 983d 3b96 aa3d 9830 ca3d ce08 cebd

bias f4 [32]
0.0026391416 0.04558194 0.07762407 -0.131747 0.10127607 -0.063967064 0.059778642 -0.059038457
0.087411076 -0.03398858 0.11916862 -0.1825075 0.077952504 -0.09184404 0.09138068 -0.028415974
0.010417528 0.053859007 0.11099238 0.019206977 0.09267138 0.10223055 0.077750124 0.10816451
-0.0888598 -0.037877716 -0.033049107 -0.122804575 -0.04834808 -0.07948215 -0.12775145 0.09303975
00000000: 73f5 2c3b 21b4 3a3d 5ef9 9e3d b0e8 06be
00000010: d469 cf3d 2a01 83bd 73da 743d 4fd2 71bd
00000020: 9404 b33d 9c37 0bbd ad0e f43d 3fe3 3abe
00000030: 90a5 9f3d ba18 bcbd cb25 bb3d 9ec8 e8bc
00000040: 48ae 2a3c 439b 5c3d f94f e33d f357 9d3c
00000050: 7eca bd3d 405e d13d 753b 9f3d 5b85 dd3d
00000060: 20fc b5bd aa25 1bbd 805e 07bd f780 fbbd
00000070: a308 46bd 8ac7 a2bd 47d1 02be a08b be3d

weight f4 [16, 32]
-0.013703675 -0.015074234 -0.14466621 -0.04145827 0.18486483 -0.08826364 0.02352043 0.04832142
-0.1334218 -0.004735841 -0.008818873 -0.037766464 0.08822746 0.013266284 -0.07246271 -0.14091417
-0.12862575 -0.09152366 -0.08749736 0.11979658 0.06292716 2.160658e-05 -0.13340119 0.064476214
-0.15749161 0.135736 -0.032304063 -0.12195303 -0.08127582 0.17577766 -0.020381315 0.10425671
-0.025617147 -0.024394631 0.112192236 -0.059696466 -0.018772013 -0.0029342775 0.17501377 -0.015470083
0.17293972 0.036317863 0.017529618 -0.03851322 0.005161469 0.08423982 -0.14266273 0.045199975
-0.04323887 0.013084963 -0.16280816 0.03506229 0.089658216 -0.056337446 -0.06271058 0.090810254
-0.08622516 0.0902484 0.039472956 0.019732622 -0.08678385 0.055493772 -0.014710733 0.06944721
0.002450354 0.14711922 0.016516225 -0.026300924 -0.12407119 -0.009817803 0.034458622 0.093896344
0.061430093 -0.022661513 0.15236914 0.07055274 -0.15959837 0.0058267727 -0.102743864 -0.02265027
0.08199969 -0.11434618 0.053083163 0.07051978 -0.054356847 -0.0069826427 0.033414137 -0.119470984
-0.017069248 0.1968072 -0.13836144 -0.048240855 -0.15541147 -0.08862445 0.14516366 -0.12453042
0.058909155 0.048837632 0.0017327198 -0.11604097 -0.18214507 -0.047465444 -0.1003673 -0.08583704
0.10631765 -0.096745215 0.05048688 -0.0078298 -0.03969581 -0.05266234 -0.19881864 -0.13388039
-0.1561836 -0.14389572 -0.07028047 0.03475012 -0.01541571 -0.10626895 -0.097257495 0.12058608
0.056893863 -0.0474423 0.062688276 -0.06742932 -0.031038983 0.08089686 0.18142127 -0.03591348
0.008102713 -0.022392733 0.030750198 0.13363111 -0.1943852 0.05710979 0.11136797 0.1450297
0.1905006 0.08656473 0.11342743 -0.082416914 -0.049777772 0.16649273 0.0146593405 -0.10842919
-0.1282743 -0.019483231 0.15232651 0.12901942 -0.045333065 -0.04443624 -0.11267312 0.13773444
0.14142425 -0.02824053 0.1280411 0.062762715 0.10066285 -0.19753999 -0.030350698 -0.0007468945
0.09191892 0.07953034 0.15983818 0.08307014 -0.022748515 0.06846752 -0.016689941 0.13747106
0.05785233 -0.0066787796 -0.15526485 0.0045781406 0.048047718 0.12584205 -0.070339546 -0.13417843
-0.12223822 -0.13392729 -0.13013282 0.07454477 -0.17664249 0.03238935 -0.061042406 0.030854285
0.16392821 0.14517431 0.08102845 -0.17044403 0.08057296 0.048603375 0.07548751 -0.16484977
0.10104723 -0.0929587 -0.10665302 -0.056991946 -0.06910206 0.01168651 0.036097992 -0.07993966
0.09275887 -0.14258899 0.05102797 -0.010123465 -0.10486669 0.11415505 0.0809108 -0.10925819
-0.14230876 0.1238901 -0.06051525 0.18426524 -0.0743438 -0.10610521 0.174985 0.101304755
0.02536355 0.015616668 0.046158236 0.1775582 0.00038142106 0.05099822 0.0736411 0.07961248
-0.14986089 0.084575005 0.17019853 0.14649348 -0.18248555 0.03076938 0.074935414 -0.060405195
-0.007386564 -0.080185786 0.0996244 0.11909269 0.03287366 -0.13582578 -0.13386902 0.06481424
-0.071422756 -0.20100558 0.05140634 -0.096250184 -0.0102186855 0.059014898 -0.021601386 0.031973563
0.13360243 0.069809556 0.0058638263 -0.028172601 0.123051696 0.10557353 0.045151796 -0.030972905
00000000: 6185 60bc ecf9 76bc 6123 14be 26d0 29bd
00000010: 354d 3d3e 91c3 b4bd ebad c03c aeec 453d
00000020: b99f 08be 1d2f 9bbb 097d 10bc 02b1 1abd
00000030: 99b0 b43d d45a 593c 5467 94bd ce4b 10be
00000040: 78b6 03be c270 bbbd d131 b3bd e957 f53d
00000050: f4df 803d c73f b537 529a 08be 1b0c 843d
00000060: 7b45 21be 61fe 0a3e 4451 04bd 83c2 f9bd
00000070: f073 a6bd 0fff 333e b7f6 a6bc 8b84 d53d
00000080: 0ddb d1bc 40d7 c7bc 0bc5 e53d 4884 74bd
00000090: c4c7 99bc 024d 40bb cf36 333e 3b76 7dbc
000000a0: 1c17 313e 0ac2 143d 469a 8f3c 0ac0 1dbd
000000b0: 8a21 a93b ed85 ac3d 2e16 12be 9c23 393d
000000c0: 3e1b 31bd 5062 563c 2fb7 26be 7a9d 0f3d
000000d0: ba9e b73d 18c2 66bd 686e 80bd bafa b93d
000000e0: d196 b0bd 27d4 b83d 65ae 213d 4fa6 a13c
000000f0: bbbb b1bd 704d 633d 4905 71bc 573a 8e3d
00000100: 1e96 203b 6ca6 163e 094d 873c 0975 d7bc
00000110: 0919 febd dada 20bc 7c24 0d3d ba4c c03d
00000120: 1f9e 7b3d a3a4 b9bc a806 1c3e f47d 903d
00000130: c16d 23be 83ee be3b 606b d2bd 0f8d b9bc
00000140: 74ef a73d 542e eabd bb6d 593d ad6c 903d
00000150: 49a5 5ebd a7ce e4bb 43dd 083d 34ad f4bd
00000160: cfd4 8bbc d487 493e 9fae 0dbe 3498 45bd
00000170: 2f24 1fbe bc80 b5bd c8a5 143e ce09 ffbd
00000180: ba4a 713d f809 483d 6e1c e33a e3a6 edbd
00000190: 3d84 3abe 206b 42bd 5f8d cdbd 54cb afbd
000001a0: 11bd d93d 5b22 c6bd 55cb 4e3d 9048 00bc
000001b0: 1398 22bd 77b4 57bd 1d97 4bbe f117 09be
000001c0: 98ee 1fbe 6659 13be 35ef 8fbd 2456 0e3d
000001d0: 2d92 7cbc 89a3 d9bd f02e c7bd d6f5 f63d
000001e0: 8a09 693d db52 42bd b662 803d 6218 8abd
000001f0: 7745 febc 41ad a53d 7fc6 393e 031a 13bd
00000200: 3ec1 043c f770 b7bc d7e7 fb3c 98d6 083e
00000210: ea0c 47be f5eb 693d e414 e43d aa82 143e
00000220: 9712 433e d948 b13d a44c e83d 33ca a8bd
00000230: c7e3 4bbd 127d 2a3e bb2d 703c 2010 debd
00000240: 575a 03be 4c9b 9fbc 7bfb 1b3e ab1d 043e
00000250: 2aaf 39bd c602 36bd 2ac1 e6bd 420a 0d3e
00000260: 85d1 103e af58 e7bc 351d 033e bd89 803d
00000270: 5328 ce3d ec47 4abe 07a2 f8bc 3ecb 43ba
00000280: fd3f bc3d cee0 a23d 9fac 233e ad20 aa3d
00000290: 185b babc b338 8c3d 58b9 88bc 37c5 0c3e
000002a0: 91f6 6c3d aad9 dabb c0fd 1ebe 3a04 963b
000002b0: afcd 443d bddc 003e 2e0e 90bd 1266 09be
000002c0: 0858 fabd 3c24 09be 8a41 05be eeaa 983d
000002d0: c5e1 34be b2aa 043d 9a07 7abd 20c2 fc3c
000002e0: ccdc 273e 93a8 143e 3ef2 a53d e188 2ebe
000002f0: 7003 a53d 5514 473d 3299 9a3d 61ce 28be
00000300: daf1 ce3d 2261 bebd e66c dabd 6370 69bd
00000310: 6185 8dbd c778 3f3c 7ddb 133d 68b7 a3bd
00000320: 5df8 bd3d d902 12be b402 513d e4dc 25bc
00000330: 59c4 d6bd 1fca e93d 90b4 a53d c2c2 dfbd
00000340: 63b9 11be 18ba fd3d d7de 77bd 07b0 3c3e
00000350: 9041 98bd b04d d9bd 452f 333e de78 cf3d
00000360: 38c7 cf3c 0edd 7f3c 6b10 3d3d d1d1 353e
00000370: 78f9 c739 82e3 503d 25d1 963d de0b a33d
00000380: 2275 19be a935 ad3d 8648 2e3e 6302 163e
00000390: 7edd 3abe 1110 fc3c bd77 993d 706b 77bd
000003a0: fd0a f2bb 7238 a4bd e107 cc3d dee6 f33d
000003b0: 88a6 063d ea15 0bbe f614 09be 54bd 843d
000003c0: 1846 92bd 68d4 4dbe 748f 523d d11e c5bd
000003d0: 466c 27bc 9bb9 713d 64f5 b0bc b6f6 023d
000003e0: 13cf 083e 50f8 8e3d 5725 c03b 3aca e6bc
000003f0: 8702 fc3d ef36 d83d 17f1 383d e4ba fdbc

bias f4 [16]
-0.08758344 -0.08733102 -0.010934903 0.05838287 0.08652935 0.10263026 -0.0948266 0.07642984
-0.05737965 -0.17824276 0.076614894 0.18075842 0.13134964 -0.003859731 0.02456988 -0.07953951
00000000: f25e b3bd 9bda b2bd 4f28 33bc e022 6f3d
00000010: 4d36 b13d d02f d23d 7334 c2bd 3f87 9c3d
00000020: ed06 6bbd 4585 36be 45e8 9c3d bc18 393e
00000030: 8580 063e 8af3 7cbb c646 c93c 9ce5 a2bd

weight f4 [2, 16]
0.02103421 -0.16554148 0.1028434 -0.176228 -0.11927443 -0.116276875 -0.08210516 -0.041367184
0.111550435 -0.033720847 -0.18561019 -0.047875475 -0.19336593 -0.20607068 -0.11492476 0.19915742
0.014494853 -0.095031135 0.18487097 -0.12050857 -0.07409259 -0.13825603 0.004448405 0.06712581
-0.16048309 -0.02533883 -0.17572393 -0.12939988 -0.115983225 -0.049583886 0.15367906 -0.008170744
00000000: f04f ac3c b583 29be 8f9f d23d 1d75 34be
00000010: 2746 f4bd 9222 eebd c026 a8bd a370 29bd
00000020: 8e74 e43d df1e 0abd 9910 3ebe 1319 44bd
00000030: b801 46be 3104 53be ac5d ebbd ecef 4b3e
00000040: d27b 6d3c af9f c2bd d14e 3d3e 32cd f6bd
00000050: dbbd 97bd fd92 0dbe edc3 913b 4279 893d
00000060: ae55 24be 6193 cfbc f9f0 33be 6781 04be
00000070: 9d88 edbd 7918 4bbd 0b5e 1d3e 96de 05bc

bias f4 [2]
0.15354705 0.19814906
00000000: 703b 1d3e 96e7 4a3e

weight f4 [1, 16]
-0.059796844 -0.16066243 -0.06644954 -0.0484082 0.14096312 0.117478125 -0.12792706 -0.14760664
0.2822889 -0.28478032 0.257356 0.33664414 0.15902315 -0.05206093 -0.06211481 -0.057778414
00000000: 89ed 74bd b184 24be b216 88bd ad47 46bd
00000010: a358 103e 5f98 f03d 50ff 02be 3226 17be
00000020: 2c88 903e bace 91be 2ac4 833e 9f5c ac3e
00000030: f7d6 223e d73d 55bd 196c 7ebd 0fa9 6cbd
