rl_model.pt (torch, 32303 bytes, 10 tensors)

sigma f4 [2]
000000 0a d7 23 3c 0a d7 23 3c
       0.01 0.01

weight f4 [64, 4]
000000 ab 65 74 3d d2 db a0 be 53 29 73 be e8 6f e3 3e
       0.05966727 -0.3141771 -0.23746233 0.44421315
000010 d1 fb d3 bd d4 1c ca 3d 30 61 08 bd 4f e0 0f be
       -0.103507645 0.0986878 -0.03329581 -0.1405041
000020 a7 c8 64 3e ab 51 b7 be 4c 52 7a be 2e a2 58 be
       0.22342168 -0.35804495 -0.24445456 -0.21155617
000030 06 1d 25 be fa f4 2c bd ed 3a 02 be 05 a2 b5 3e
       -0.16124353 -0.042225815 -0.12717791 0.35475174
000040 67 2c 21 be ac 29 b4 be 43 6d 0a 3f a0 6f d7 be
       -0.15739594 -0.35188043 0.5407297 -0.4207735
000050 7d 86 87 3e c6 8c df 3e 60 e7 19 3d f4 24 0a be
       0.26469794 0.4366209 0.037574172 -0.13490659
000060 20 da 01 3e b9 94 89 3e 68 24 47 3e 13 66 d3 be
       0.12680864 0.2687128 0.19447482 -0.41288814
000070 53 cd 3e bd 1a 58 e3 3d 5e 4e 8b bd fd 6c 20 be
       -0.04658253 0.111007884 -0.06802057 -0.15666576
000080 7f 04 7d be df e4 99 be 3a 80 8c bd e5 0a d6 be
       -0.24708746 -0.30057427 -0.06860395 -0.41805187
000090 80 a0 67 3e 45 a8 6f be 3b 67 c7 be ec ce b9 3e
       0.2261982 -0.23404033 -0.38945946 0.3629068
0000a0 59 cb 6e 3e 0a fd 8d 3e 74 ce fd bd 91 6a c9 be
       0.23319758 0.27732116 -0.123928934 -0.39339116
0000b0 e5 7a d3 bb 91 eb 26 bd 12 04 d8 3c 18 1d 0b be
       -0.006453859 -0.040751997 0.026369128 -0.13585317
0000c0 c7 23 46 be 28 c3 a6 3e bc 32 64 be e0 35 28 3e
       -0.19349585 0.32570767 -0.22284979 0.16426802
0000d0 d0 35 20 3e 32 69 f2 3d 37 52 a0 3e df 21 75 be
       0.15645528 0.11836471 0.31312725 -0.23938702
0000e0 78 21 87 be 4b 5d df be a7 50 cb bc 41 3d 39 3e
       -0.26392722 -0.43625864 -0.024818731 0.18089773
0000f0 c5 b6 d3 bc 25 55 a0 be ba 39 b0 3e 1a 1a da 3e
       -0.025843987 -0.3131496 0.34419042 0.4259804
000100 e1 cc 30 bd 8f 4f 13 3e 42 ec 34 3d 5b 96 17 3e
       -0.043164138 0.14385818 0.044170626 0.1480345
000110 ef 18 97 3d 16 98 80 bd 20 53 f8 bd 02 15 97 3c
       0.073778026 -0.06279008 -0.1212523 0.018442634
000120 7b 57 6a 3e d5 a5 de 3e eb fe ed be 04 6f 8e be
       0.22884934 0.43485895 -0.4648355 -0.27819073
000130 90 b9 61 3e 87 59 9c 3e b4 74 33 3e 29 98 d7 be
       0.22043443 0.30537054 0.17524987 -0.42108276
000140 49 b0 81 bc 48 0d 2b 3d 12 af 96 be 8f 8c d3 be
       -0.01583113 0.041760713 -0.29430443 -0.41318175
000150 87 fd 84 3e 9a 37 99 3e dc c4 05 be c7 c7 a4 3e
       0.25974676 0.29925233 -0.13063377 0.32183668
000160 bd 26 35 3e 56 3e e5 be 64 fa b2 bd 75 62 85 be
       0.17690559 -0.4477412 -0.087391645 -0.2605168
000170 bc 02 92 be 88 0c 07 bd 01 29 e9 3e 5d 0d ff bd
       -0.2851771 -0.032970935 0.45539096 -0.12453721
000180 3e 81 7b 3e 36 01 b1 be 33 6c 20 be 6f 60 a6 3e
       0.2456102 -0.34571236 -0.15666275 0.32495448
000190 31 41 29 bd d3 64 d4 3d f0 62 9f 3e 94 74 f3 bd
       -0.041321937 0.10370793 0.3113017 -0.1188747
0001a0 8a 40 d7 be 60 52 be be 41 be 9a 3e 83 10 81 3e
       -0.42041427 -0.37172222 0.30223277 0.2520791
0001b0 9f 72 99 be e6 da b7 be 84 30 cb be a0 d7 36 3e
       -0.2997026 -0.35909194 -0.39685452 0.17855692
0001c0 f8 15 6d 3e 10 cd f6 be da c1 92 3c ad 59 fb 3c
       0.23152912 -0.48203325 0.017914701 0.03068241
0001d0 09 57 00 3c 73 1a 6b be 50 79 52 bd a3 d8 cf 3e
       0.007833251 -0.22959308 -0.051385224 0.40594968
0001e0 36 84 bb be 2b de 1b 3e 71 3f 73 be d9 8a c4 3e
       -0.36624306 0.15221469 -0.2375467 0.38387182
0001f0 66 48 6b 3e e6 05 32 be 04 36 16 be e7 54 ab 3e
       0.22976837 -0.17385063 -0.14669043 0.33463213
000200 0c bd 02 3e 47 61 40 be 3e 06 59 3e 41 71 d0 3e
       0.12767428 -0.18787108 0.21193787 0.40711406
000210 e0 15 61 bd d3 2d b0 be 02 8b 02 bf 38 2b 27 be
       -0.054952502 -0.3440996 -0.5099336 -0.1632508
000220 2c 9f 1e 3e fc c6 90 be 4c b1 b2 3e 8e f3 34 3d
       0.15490407 -0.28276813 0.34900892 0.044177584
000230 4b 08 76 3e 77 fa ad 3e 8f 48 85 be 34 d9 1d bc
       0.24026601 0.33980152 -0.2603192 -0.009634305
000240 75 bb ab 3e 10 48 86 be bc 00 c8 3e 73 e7 56 bd
       0.33541456 -0.26226854 0.3906306 -0.05246682
000250 9a f6 67 be 58 80 61 3d e7 af d6 3e f1 4d f4 be
       -0.22652665 0.05505404 0.41931078 -0.47715715
000260 81 2f e2 bc 83 5b 4e 3e 47 45 9b be 8e c6 2c 3e
       -0.027610542 0.20152096 -0.30326292 0.16872618
000270 1e fe b9 be 37 59 5b 3d 23 7d 18 3d 9d c4 f2 3e
       -0.3632669 0.05355188 0.037228715 0.4741563
000280 89 19 dd 3d 15 43 5d 3d 10 d6 c6 3e f5 5f 82 be
       0.10795886 0.054019053 0.38835192 -0.25463834
000290 79 c8 14 be 63 af 98 3d 55 74 36 3c dd 5a 46 be
       -0.14529599 0.07455327 0.011136134 -0.19370599
0002a0 a8 a6 aa 3e 6d 0e cb be 95 47 7c be 12 2c 90 bc
       0.33330274 -0.39659443 -0.24636681 -0.01759914
0002b0 0d bd 9b be df f1 97 be 2b 56 fb 3d 58 19 5f 3d
       -0.30417672 -0.2967672 0.122722946 0.05446753
0002c0 bc b4 d7 be d9 97 b2 be 8a a1 d3 3e 40 ec 88 3d
       -0.42130077 -0.34881476 0.41334182 0.06685686
0002d0 b1 c5 99 3e 0d 2a a6 bc 5c 76 70 3e 17 20 91 3e
       0.3003364 -0.020283723 0.2348265 0.28344795
0002e0 9e a1 b5 3c bc 43 9e bd 78 54 99 3e dc 4f b6 3e
       0.022171792 -0.07727763 0.29947257 0.35607803
0002f0 7a 90 86 bd f2 9a 53 be a8 3d 8b 3e f1 b7 b7 3e
       -0.065705255 -0.20664576 0.27195477 0.35882524
000300 31 d7 4a be df b2 41 3e 4a 96 0d 3d 96 53 a1 3e
       -0.19808652 0.1891589 0.034567155 0.31509084
000310 b8 d1 66 be da ff 96 bd 46 98 ed 3e 8d b2 9b be
       -0.22540939 -0.073730186 0.46405238 -0.3040966
000320 6f 56 7f be ea 28 64 be 5a 99 16 3e fa fa d2 ba
       -0.24935316 -0.22281232 0.14706936 -0.0016096525
000330 2f 48 5d 3e 75 8b 6d 3e 04 49 f4 be 4e b4 be be
       0.21609567 0.2319773 -0.47711957 -0.37246937
000340 7c f4 5b 3d ab 95 7a be 26 5e 10 be bb 9e 85 3e
       0.053699955 -0.24471156 -0.14098415 0.26097664
000350 81 b6 ee 3d d8 be ab be db 6a c5 3e 85 6e fb 3e
       0.116559036 -0.3354404 0.38558087 0.49107757
000360 24 ff e6 3d 74 89 d4 3c bf a3 12 bd 00 df 47 3c
       0.11279133 0.025944449 -0.03580069 0.012199163
000370 df 24 aa be eb dd 8c be a3 49 2b 3e 59 c8 b5 3e
       -0.33231255 -0.2751306 0.16727309 0.35504416
000380 04 d1 51 3e d6 1a b6 3e 85 e7 a8 3e 71 07 d7 be
       0.2048989 0.3556735 0.32989135 -0.41997865
000390 8f ea 11 bc 16 95 a4 3e 10 1a ff be b5 bf c4 3e
       -0.008906021 0.32144994 -0.49824572 0.3842751
0003a0 ce 3a a5 be d2 69 9c 3e 96 f1 14 3f 7d 5b 14 bf
       -0.32271427 0.30549484 0.5818113 -0.579521
0003b0 ad 34 94 be 64 3e 9a bc 2c 7c 23 3d 2b e7 f1 be
       -0.28946438 -0.018828578 0.03991334 -0.4724668
0003c0 13 07 1d 3e 9e 8d b8 be 59 35 5c be d0 e3 7d bc
       0.1533473 -0.36045545 -0.21504726 -0.015496209
0003d0 19 75 c3 3d 85 ac c5 be 33 b2 0c 3e 8c 97 02 3f
       0.09543819 -0.38608184 0.13739853 0.5101249
0003e0 40 df 60 bd e7 dc 32 bd f0 98 2e 3e fa ff f2 bd
       -0.054900408 -0.0436677 0.17050529 -0.1186523
0003f0 15 94 9a be 3e 21 2b bd de dd 9c bd e9 1e a7 be
       -0.30191103 -0.04177975 -0.07659505 -0.3264077

bias f4 [64]
000000 96 2e e9 be 77 e5 c1 3e 4f c0 78 3e a1 0d 0b be
       -0.45543355 0.3787038 0.2429211 -0.13579418
000010 5b 55 01 bf f5 d5 89 3e 0c c8 85 be b1 db 0b 3e
       -0.5052087 0.2692105 -0.26129186 0.13658024
000020 4a 84 9a be 1f b6 83 bc d6 20 7a bd 4c b5 98 3e
       -0.30179054 -0.016078053 -0.06106647 0.2982582
000030 d3 d8 72 3e 8f 01 51 3e 27 3b 50 bd 81 de 41 3e
       0.23715524 0.20410751 -0.050837662 0.18932535
000040 87 2c 55 bd f5 7f 5e 3e d3 28 c7 3e 12 63 56 3e
       -0.052044418 0.21728499 0.38898334 0.2093623
000050 06 f0 8f 3e 38 87 e8 be 62 86 a2 be 86 44 5d bd
       0.2811281 -0.45415664 -0.3174315 -0.054020427
000060 93 dc 12 3e 8c 70 d0 be 47 20 13 be 9e fe e2 bd
       0.14341955 -0.40710866 -0.14367782 -0.110837206
000070 44 13 77 3e a0 aa db be 15 be dc 3d c3 af 5e 3e
       0.24128443 -0.42903614 0.10778443 0.21746735
000080 4e 51 85 3d c9 65 25 bb d9 40 d2 bd b1 27 a5 bd
       0.06509648 -0.002523767 -0.10266275 -0.08064211
000090 6d 6f c8 be 83 c5 ad be 94 b4 7f 3e 3a 25 9e 3e
       -0.3914751 -0.33939752 0.24971229 0.30887777
0000a0 7e 18 b9 3e 0b 45 cd bc 22 09 2e be 7d 1d e6 be
       0.361515 -0.025057336 -0.16995671 -0.44944373
0000b0 85 9b 6b 3e 2b 8c 64 bd 28 6a 27 3e 7b 17 eb be
       0.23008545 -0.055797737 0.16349089 -0.45916352
0000c0 f4 ab 99 be 08 76 a1 3e 5e 31 e5 3d 51 2d 96 3e
       -0.30014002 0.31535363 0.11191057 0.2933145
0000d0 fc b5 47 3e 57 66 ed 3e ac 9e 91 3e b4 5f 82 3e
       0.19503015 0.46367142 0.2844137 0.2546364
0000e0 64 b0 1e 3e 4e 8b 81 be f2 83 9a be f1 a3 a0 be
       0.15496975 -0.25301594 -0.3017879 -0.31375077
0000f0 0d a7 35 be be a7 82 3e 81 e0 16 be 15 08 a5 be
       -0.17739506 0.25518602 -0.14734079 -0.3223273

weight f4 [32, 64]
000000 1e 98 37 bd 74 68 97 3d 23 9c b0 3d 46 7f 07 bd
       -0.044822805 0.0739297 0.08623531 -0.03308036
000010 a6 9c d6 bd 22 85 77 3d f0 51 84 3b 54 9d 2c 3d
       -0.10479097 0.0604297 0.004038088 0.042142227
000020 40 47 b1 3d 1d 28 91 bd 5d 09 af bd 15 b9 db 3c
       0.08656168 -0.07087729 -0.08546708 0.026821652
000030 93 4a 75 bd 18 07 22 be d9 fb d9 3d 6e c7 40 bd
       -0.059885573 -0.15823019 0.10643739 -0.04706519
000040 51 e3 27 3d 04 91 df 3d 5c 70 c9 3d 59 fd b0 3d
       0.04098827 0.109163314 0.09835884 0.08642072
000050 4d 70 26 3d c9 b4 1b bd d1 f5 10 3e 9e 49 81 bd
       0.040634442 -0.038014207 0.14156272 -0.063128695
000060 59 3f b9 3d f2 79 bc 3d 6a 74 7a bd 92 b3 7b 3d
       0.09045286 0.09202947 -0.061146177 0.06145055
000070 43 ac 8e bd 34 af 5a 3d b1 13 a6 bd 41 61 eb 3a
       -0.0696645 0.053389743 -0.081092246 0.0017958061
000080 0c c6 d0 3d 92 91 96 3c 14 86 26 3e 57 86 ce bd
       0.101940244 0.01837996 0.16262084 -0.10084217
000090 3d 7d d2 3d ac 80 1a be 53 cc a1 3c f1 48 e2 bd
       0.102777936 -0.15088147 0.01975075 -0.11049069
0000a0 07 36 f6 bd 07 78 16 be cb f3 91 bd 62 d4 f0 3d
       -0.12022024 -0.14694224 -0.07126578 0.11759259
0000b0 73 0c db 3d ed 8b b1 b9 6c 30 99 bd 36 8f 63 3c
       0.10695734 -0.00033864324 -0.07479939 0.013889125
0000c0 24 52 53 3c 7d c0 81 3d 5e f1 06 bd e3 5c 1e 3d
       0.012898002 0.06335542 -0.03294503 0.038662802
0000d0 df 95 ca bd ae 9e 0c 3e d3 9d 3c bd 4d 15 e0 bd
       -0.09891867 0.13732406 -0.04604895 -0.10941563
0000e0 ce f9 2f 3d 69 04 9d bd e1 51 88 3d 5a 8a a3 bd
       0.04296284 -0.07666857 0.06656242 -0.07985373
0000f0 71 f3 c6 3d 3b be 28 3e a5 fc 2e 3d 59 a0 e0 3b
       0.097144015 0.16478817 0.04272141 0.0068550524
000100 2b 42 1c bd 55 88 eb bd 2e 32 98 bd 12 86 23 3c
       -0.03814904 -0.11500613 -0.07431446 0.009980695
000110 ff ee 01 be 5c b2 e9 3d 57 b8 19 3e ec 2f 3d be
       -0.12688826 0.114109725 0.15011726 -0.18475312
000120 80 7c 33 bd 46 c8 7e 3c 6e a2 1e bc 41 f7 52 3d
       -0.043819904 0.015550679 -0.009682281 0.05150533
000130 b6 0e bf bd 04 51 53 bd fa 53 53 bd cb 86 fc 3d
       -0.09328978 -0.051590934 -0.05159376 0.12330397
000140 b0 5c 7b bd 94 87 8f 3d 7a 27 1b 3d 13 a5 be 3d
       -0.06136769 0.07008281 0.037879445 0.09308829
000150 cf c4 31 be 7c 11 36 3d 53 57 6f 3b 13 c2 f1 bc
       -0.17360233 0.04445027 0.0036520555 -0.029511487
000160 84 72 21 3d a4 a7 ba 3d f0 9f 40 3d 2c 89 0d be
       0.03941585 0.09114006 0.04702753 -0.13821858
000170 68 a7 8a bd 22 d1 22 3e d9 5e 38 3b 56 f1 f4 3d
       -0.067702115 0.1590009 0.0028132705 0.11960094
000180 eb ad 4e 3d 5e c4 d8 3c 69 68 8c bc 2d f7 0e 3e
       0.05045883 0.026460823 -0.01713963 0.13961478
000190 37 d3 83 bd 56 b5 dd bd 03 c3 25 be 45 5a 24 be
       -0.064367704 -0.10825603 -0.16187672 -0.1605006
0001a0 5f 04 55 bd 07 d9 60 3d d7 81 9f 3d ee fe 86 bc
       -0.05200612 0.054894473 0.07788437 -0.016478982
0001b0 5b fc ee bd 8b 30 ae bd f1 30 00 3d c1 33 0a 3e
       -0.11669227 -0.085053526 0.031296674 0.13496305
0001c0 03 b9 9c 3d 8e 0b 0a 3d e3 49 8a bc 67 6f bd bd
       0.07652476 0.033702426 -0.016880935 -0.09249764
0001d0 e2 7f 53 3d 52 6f cd bd b0 c1 e2 3b 46 7e 7a 3d
       0.05163563 -0.10030998 0.006920062 0.06115558
0001e0 c1 55 31 bc 91 1c c8 bd 6b 98 c3 bd c4 3a 90 bc
       -0.010823668 -0.097710736 -0.09550556 -0.017606147
0001f0 00 c7 b3 3d 2e 21 05 3e 35 f4 94 3d 35 f8 34 3d
       0.087781906 0.13000938 0.07273141 0.04418202
000200 80 ea f0 3d 79 2d ce bd e3 89 5e 3e ce 0a db bd
       0.11763477 -0.10067267 0.21732287 -0.1069542
000210 c6 de e9 3b 18 13 19 bd 57 03 dd 3c 76 e0 27 bd
       0.0071371524 -0.037371725 0.026979132 -0.040985547
000220 4d 23 77 bd 97 ca 9c 3d ac 45 ab bd 6b 7c 54 bc
       -0.0603364 0.076558284 -0.08362898 -0.012969117
000230 a1 16 2d be 86 6c c3 3d 3d 22 74 bd ae 06 d9 3d
       -0.16903163 0.095421836 -0.059602965 0.10596977
000240 39 fb 5a 3b 9d f5 3b 3c df 9b 4d 3d 7a 95 55 bd
       0.00334139 0.011472133 0.05019748 -0.052144505
000250 d5 d5 bf bd 53 3e 66 bd 93 cf 06 3d d5 36 be bd
       -0.09366957 -0.05621178 0.032912802 -0.09287802
000260 2a 3c 39 3d ed ce 50 bd fc 5d 96 3d c3 35 05 bc
       0.045223393 -0.05097859 0.07342145 -0.008130494
000270 b9 c7 90 3d 11 33 16 3e 65 d1 44 be bf e5 b7 bc
       0.07069344 0.14667918 -0.19220503 -0.022448419
000280 83 f8 0f 3e cd 1e aa 3d 5c 52 8e 3c 07 09 be bd
       0.14059643 0.08306656 0.017373256 -0.092790656
000290 02 a0 73 bc 54 8f df bd e6 54 c2 bd 87 2e 95 3d
       -0.014869692 -0.109160095 -0.09488849 0.07284265
0002a0 bb 9e 21 3d f7 ad 2f be 0c 09 3d 3e 00 5b fb 3c
       0.039458018 -0.17156206 0.18460482 0.03068304
0002b0 26 1d 11 3e 44 6d f0 3d d0 49 4a 3e 3d b7 13 3d
       0.14171275 0.11739591 0.1975472 0.03606342
0002c0 93 4d 49 be eb 17 5a bd 7f 1d 5a bd 7d 06 a1 3c
       -0.19658498 -0.053245466 -0.053250786 0.019656414
0002d0 8f 3c 11 bc 8b cd 11 3e d5 07 23 bd 1f 86 1f bc
       -0.008864536 0.14238565 -0.03980239 -0.009736567
0002e0 ce fa 9e 3d 4c 73 c7 bd e2 12 d8 bd c0 38 c2 bd
       0.07762681 -0.09738788 -0.105504766 -0.094834805
0002f0 c9 6b b0 3c e3 a8 1a 3d 22 47 da 3d 63 52 27 be
       0.021535771 0.03775872 0.10658099 -0.16340022
000300 17 84 05 3d 74 39 1e 3d 44 54 46 be dc 5f dd 3d
       0.032596674 0.03862901 -0.19368082 0.10809299
000310 fd a3 dd 3c 49 dc 13 bd 8f 4b 07 3d 7f 93 9d bd
       0.027055735 -0.036098752 0.033031043 -0.07694148
000320 76 68 05 3d 6e c9 45 be be 0b 2c 3d ad 48 07 be
       0.032570325 -0.1931512 0.042003386 -0.13211317
000330 55 dc e5 3d 8a 92 bb 3d 40 fb 8a 3d e3 2a d1 3c
       0.112236656 0.091588095 0.067862034 0.025533145
000340 b8 87 00 be 54 f8 ce 3c 13 f1 07 3d 69 08 a0 bd
       -0.12551773 0.025264896 0.03318889 -0.07814104
000350 4b 52 93 bd 54 a9 02 3c 25 3c c7 bd f1 0b a2 3b
       -0.071934305 0.007974941 -0.097282685 0.004945271
000360 ee 01 1f 3d f6 82 16 be 17 4b a6 bb 27 09 18 3d
       0.0388202 -0.14698395 -0.0050748694 0.037118103
000370 ef 34 35 be 1d 45 5c bd be bc 64 3d 00 b1 8b 3d
       -0.17695974 -0.05377685 0.05584406 0.068208694
000380 c6 5e 15 be ea dd 04 3d 26 e3 e8 bc 1e e9 1d 3c
       -0.14586934 0.032438196 -0.028428625 0.009638099
000390 01 53 37 be 25 70 1b bd 68 ce 07 3e ab 4a cc 3c
       -0.17902757 -0.037948746 0.13262331 0.024937948
0003a0 32 d9 99 bd 13 f7 83 bd 31 1e 96 bc e7 30 85 3d
       -0.0751213 -0.0644361 -0.018324943 0.06503468
0003b0 b5 a7 7d 3d e8 cc 29 3d 7e 4e d9 bd 18 de 0c be
       0.061927516 0.04145518 -0.10610674 -0.13756597
0003c0 8c 6f fb 3d 1b 59 cb 3d b9 3b d5 3d 33 92 08 be
       0.12277135 0.09929105 0.10411782 -0.1333702
0003d0 9f a9 d4 bd ab 28 0c be b4 ce 1e be a9 c0 24 3d
       -0.10383915 -0.13687389 -0.15508538 0.040222798
0003e0 8b 07 13 3d 59 12 bc 3a 75 a4 84 3d ca d9 0e b9
       0.035895865 0.001434873 0.0647668 -0.00013623308
0003f0 65 6d 08 3d 5a 10 24 3d 2d 16 bd 3d 97 f2 66 bd
       0.03330745 0.040054657 0.09232745 -0.056383695

bias f4 [32]
000000 14 45 ec 3c 92 e0 de 3b e5 27 9d 3d cf eb af bd
       0.028841533 0.006801673 0.07673625 -0.08589899
000010 d1 2e 00 3e d4 1b 92 bd 31 66 17 3c 76 cf 00 be
       0.12517859 -0.07134214 0.009240673 -0.1257914
000020 8d 1b 3f 3d f5 4b 81 bd 59 b1 cc 3d c8 7b 59 be
       0.046657134 -0.06313316 0.09994764 -0.21238625
000030 0e 3e 13 3e 42 48 c8 bd 73 27 ce 3d b8 3d 09 3c
       0.1437914 -0.09779407 0.10066118 0.008376531
000040 67 94 0e 3c 89 b8 d1 3d 00 28 77 3d fa b3 fd 3c
       0.008702374 0.102402754 0.06034088 0.030969609
000050 04 06 ec 3d 1f 21 a6 3d 9c 94 57 3d 00 48 03 3e
       0.11524585 0.08111786 0.05263196 0.12820435
000060 5a c6 f0 bd a7 6e c0 bc 15 e3 51 bd 0a 77 15 be
       -0.117565826 -0.023490263 -0.051241953 -0.14596191
000070 00 1e 9c bd cb de 96 bd 21 86 06 be 8a 99 d5 3d
       -0.076229095 -0.07366713 -0.13137104 0.10429676

weight f4 [16, 32]
000000 8b 37 4e bd c9 ce 78 bd e1 6f 24 be 7e 77 6b bc
       -0.05034594 -0.06074408 -0.16058303 -0.014371751
000010 1d fc 25 3e a2 ff a5 bd 82 2b 92 3c c4 28 4a 3c
       0.16209455 -0.08105399 0.017843012 0.012338821
000020 36 2a e0 bd 5d c1 a7 bc e2 c8 7d bd dd 7b a1 bd
       -0.10945551 -0.020477945 -0.061959155 -0.07884953
000030 ca 11 b4 3d ec b7 94 bc a6 44 07 bc 73 c3 3d be
       0.087924555 -0.018154107 -0.008256113 -0.18531589
000040 d0 c1 2f be b2 88 b7 bd 6a 4e b6 bd 82 a6 38 3e
       -0.17163777 -0.089616194 -0.08901675 0.18032268
000050 3a 71 ab 3c 7b 53 1f bd 5b d0 1b be 8e 67 10 3e
       0.020928014 -0.038897973 -0.152162 0.14102003
000060 74 1d 1b be 77 9b c0 3d 89 62 e0 bc dd 89 6e be
       -0.15147954 0.094046526 -0.027390735 -0.23294778
000070 49 80 92 bd 95 1d 15 3e 60 41 8b bd 44 f8 5e 3d
       -0.07153375 0.14562066 -0.06799579 0.054435983
000080 de 37 cd 3c 78 7d ea 3b e3 60 2e 3e c2 f9 e7 bd
       0.025051054 0.0071560703 0.17029147 -0.113269344
000090 f6 50 4a bd 02 92 7e bb c7 8f 27 3e f3 ec 5d 3c
       -0.049393617 -0.0038844352 0.1636344 0.013545263
0000a0 d9 c3 27 3e b8 8f d2 bc 10 62 9a 3d d1 6a 49 3b
       0.16383304 -0.025703296 0.07538235 0.0030733834
0000b0 10 4b 16 bd bf f3 d3 3d a4 f8 5c be 77 6c ae 3d
       -0.03669268 0.10349225 -0.21579224 0.08516782
0000c0 a1 7e 0e bd b9 7b d0 bb 2d cd 0e be 40 8e 5c bd
       -0.03478873 -0.006362405 -0.13945456 -0.053846598
0000d0 d1 d4 f7 3d 7d ef 04 bd 04 cc f5 bd ad 2e 9a 3c
       0.121011384 -0.032454956 -0.120018035 0.018821085
0000e0 40 50 7e bd f8 20 c7 3d 5e ba 38 3c e1 ae 05 3d
       -0.06208825 0.09723085 0.011274902 0.03263748
0000f0 c1 16 99 bd 08 8a 82 3d 08 3c 27 bc fd 49 b6 3d
       -0.07475043 0.063739836 -0.010207184 0.08900831
000100 33 7b f5 bc 14 14 de 3d 0d 5c a2 bc dc 1d ab bc
       -0.029965973 0.10843673 -0.019819284 -0.020888261
000110 f6 93 d5 bd 87 c7 a9 bc b0 a3 d4 3c 3e ec 63 3d
       -0.10428612 -0.020725025 0.025956959 0.05564522
000120 49 52 4f 3d 15 2d 4d bc 4c 26 b9 3d 31 35 6b 3d
       0.050615583 -0.012522955 0.09040508 0.057423774
000130 54 ad 2c be af d6 7d bc 11 a3 b0 bd 41 ca 19 bd
       -0.16862994 -0.015493079 -0.086248524 -0.0375464
000140 6b e8 1a 3d 1c ac e2 bd 1b 60 90 3c 05 5a f1 3d
       0.037819307 -0.110679835 0.017623952 0.11784748
000150 95 55 32 bd c3 bc 2f bd 31 df d6 3a 55 91 a5 bd
       -0.04353865 -0.042904627 0.001639342 -0.080843605
000160 b9 a4 6e 3c a6 0b 3f 3e 3f 4b f8 bd 0d bf 3f bd
       0.01456564 0.18656787 -0.12123727 -0.04681306
000170 3c 42 00 be 08 da fb bd 1d eb e2 3d 53 63 13 be
       -0.12525266 -0.122974455 0.110800005 -0.14393358
000180 2d 73 e9 3d 71 36 f1 3d d3 0f 45 3d d0 c4 ee bd
       0.11398921 0.11777962 0.048110794 -0.11658633
000190 5f 14 3f be 62 b6 8e bc 3c d4 a3 bd 5a 6f 6a bd
       -0.18660115 -0.017420951 -0.07999465 -0.0572351
0001a0 2f c2 f0 3d 8a 2a d6 bd f4 02 e2 3d de c1 11 3d
       0.117557876 -0.104573324 0.110357195 0.035585277
0001b0 98 51 07 bd 14 98 04 bd 2c 72 73 be e9 16 b6 bd
       -0.0330368 -0.032371596 -0.23774022 -0.088910885
0001c0 8e 45 9b bd 7b 43 18 be 61 21 c2 bc b2 e9 21 bd
       -0.07581626 -0.14869492 -0.023697557 -0.03952951
0001d0 fd 17 0e 3c d2 09 97 bd 08 72 d1 bd 6b e9 78 3d
       0.008672711 -0.0737492 -0.10226828 0.06076948
0001e0 f1 0c 2d 3d 1e a9 16 bd 6b 5c 56 3d 31 05 d4 bc
       0.04224867 -0.036782376 0.05233423 -0.025881382
0001f0 ca 1f 16 bd b3 05 14 3e 8a bc 51 3e 13 30 9e 3c
       -0.03665141 0.14455299 0.20482078 0.019310033
000200 a7 81 6c 3d e9 b7 dd 3c 94 8c a1 3d 47 10 bd 3d
       0.057740834 0.027065234 0.07888141 0.0923162
000210 10 e2 7f be d3 4b 97 3d 3d 35 e7 3d a3 61 3e 3e
       -0.2498858 0.07387509 0.11289451 0.18591933
000220 9b fb 3c 3e a2 22 16 3d aa 51 26 3e f3 d9 20 bd
       0.18455355 0.036654122 0.1624209 -0.039270353
000230 65 11 b7 bd d2 34 3a 3e e1 a0 32 bd a5 26 9e bd
       -0.089388646 0.18184212 -0.043610457 -0.077222146
000240 bb 9a b3 bd eb 01 cb bc 2b 4e 43 3e 1e c6 06 3d
       -0.08769747 -0.024781188 0.19072787 0.032903783
000250 88 67 bb bc 07 b4 32 bd 57 d6 13 be ce 0b 7f 3d
       -0.022876516 -0.04362872 -0.14437233 0.062267117
000260 8e 72 0d 3e 18 05 15 bd be 7b 9a 3d 0b 10 6c 3d
       0.1381323 -0.03638181 0.07543133 0.057632487
000270 0e c8 b1 3d 6b ef 4f be d8 1a 8d bc 09 7b c4 3a
       0.086807355 -0.20306174 -0.017224714 0.0014990281
000280 51 68 1c 3e 73 51 0a 3e 27 18 57 3e 66 5e 21 3d
       0.15274169 0.13507633 0.21005307 0.039396666
000290 e2 be c8 bc 9f c4 9a 3d ae 75 97 bc 37 cd 1b 3e
       -0.024505083 0.07557034 -0.018488731 0.15215002
0002a0 48 0a 74 3d 14 04 84 bd b0 88 b3 bd 91 df 4b 3d
       0.059580117 -0.0644609 -0.087663054 0.049773756
0002b0 30 ae 72 3b 93 20 0f 3e 59 0a fe bd 02 90 a9 bd
       0.0037030093 0.1397727 -0.124043174 -0.082794204
0002c0 d0 c9 8f bd 9e f4 18 be bb ba ca bd 94 cc cf bb
       -0.070209146 -0.14937064 -0.09898897 -0.0063415263
0002d0 4b 0b 08 be 30 ae 50 3d 86 6d a5 bd eb 81 30 bd
       -0.13285558 0.05094737 -0.080775306 -0.04309265
0002e0 dd 55 23 3e 11 a5 2f 3e 62 61 67 3d 48 4d 16 be
       0.15950723 0.17152812 0.056489356 -0.14677918
0002f0 af b4 9c 3d 74 e5 87 3d 1f 3c 01 3e 1b 84 f9 bd
       0.0765165 0.066355616 0.1262059 -0.121834
000300 a0 21 ae 3d e0 65 0c be 8e 21 db bd ec 34 90 bd
       0.08502507 -0.13710737 -0.106997594 -0.07041344
000310 5a 5c aa bd 52 e3 87 bc ed b7 e7 bc d9 a1 b0 bd
       -0.08318396 -0.016587887 -0.028285945 -0.0862462
000320 10 af bb 3d 8a fc 35 be c4 3b e5 3b 67 a7 11 bd
       0.0916425 -0.17772117 0.00699565 -0.035560038
000330 79 3f 0d be 60 59 7b 3d 7b 14 d1 3d b4 f1 0e be
       -0.13793744 0.06136453 0.102089845 -0.1395939
000340 70 e1 4b be d8 c5 03 3e 3a d7 8f bd a0 63 49 3e
       -0.19910216 0.1286844 -0.07023473 0.1966691
000350 2e c8 cd bd 8e b9 2f be f1 e4 0a 3e b2 7e 18 3e
       -0.10047947 -0.17160627 0.13563897 0.1489208
000360 7b 4a 0c 3d ac 77 b0 bc 70 c8 c6 3c 2e ed b0 3d
       0.034250718 -0.021541439 0.024265498 0.086389884
000370 76 90 92 3c ab 60 c8 bc 58 d4 0a 3d c3 ba 37 3c
       0.01789115 -0.024460157 0.033893913 0.011213961
000380 a1 d2 40 be 5f 90 31 3d a4 12 07 3e c8 5d 01 3e
       -0.18830349 0.043350574 0.13190705 0.12633431
000390 64 01 24 be ae b6 42 3c 87 ec 21 3d 19 42 b3 bd
       -0.16016155 0.011884375 0.03953221 -0.087528415
0003a0 3d 39 0a bd 0f f7 a3 bd 37 df 99 3d e3 23 bf 3d
       -0.033745993 -0.08006107 0.07513278 0.09333017
0003b0 ff 2b 78 3c 90 ab 35 be 2a ad 01 be d8 c3 08 3d
       0.015147208 -0.17741227 -0.12663713 0.033389896
0003c0 51 85 09 be 68 37 44 be ca 88 c3 3c 02 1c a2 bd
       -0.13429762 -0.19161761 0.023868937 -0.07915498
0003d0 cd 0e 18 bd aa 9d 5a 3c da 4a ca bc e5 05 5f 3d
       -0.03712349 0.013343254 -0.024693895 0.05444898
0003e0 73 c7 0f 3e 1b 3f 41 3d 75 57 96 bc 3d c4 87 bd
       0.14040928 0.047179323 -0.01835225 -0.06629226
0003f0 63 95 ee 3d c8 07 16 3d c9 fa ef ba 94 01 aa bd
       0.11649587 0.036628515 -0.0018308993 -0.08301082

bias f4 [16]
000000 51 da 38 bd 26 10 fd bd 94 8e 6a bc 4f 44 ca 3c
       -0.045130078 -0.12356596 -0.01431622 0.024690775
000010 61 27 3f 3d 42 c7 90 3d 52 7f a7 bd 4f 13 ab 3d
       0.046668414 0.070692554 -0.08178581 0.08353292
000020 cb b0 71 bd 54 a6 1a be 1e 28 1d 3d cd da 1d 3e
       -0.059006494 -0.15102512 0.038368337 0.15415497
000030 7f 23 b4 3d 10 39 1e 3b 67 8b 75 3c 2c de b5 bd
       0.08795833 0.0024142899 0.014986849 -0.088802665

weight f4 [2, 16]
000000 4b 7b 6b 3d 69 dc 2a be fc 01 5d 3d 3d b7 2e be
       0.05749063 -0.16685642 0.05395697 -0.17062087
000010 ba c4 f5 bd ba ba 04 be be 64 d7 bc 92 cc 34 3c
       -0.12000413 -0.12961856 -0.026293155 0.0110351015
000020 d5 00 8e 3d 8c 51 7f bb cd 9a 51 be 45 04 e5 bd
       0.069337524 -0.0038958518 -0.20469208 -0.11182455
000030 df 00 19 be 81 05 16 be d7 3b 08 bd 74 f3 08 3e
       -0.14941739 -0.14650537 -0.033260193 0.1337412
000040 dd 49 23 3d 7e 7d be bd 7c a1 80 3d 8c 84 b3 bd
       0.039865363 -0.093012795 0.06280801 -0.08765516
000050 4a 0a 15 bd 9c 9e e9 bd 66 e4 d9 3c a9 bb 43 bc
       -0.036386766 -0.114072055 0.026598167 -0.011946597
000060 33 2c ad bd 61 20 2f 3d 63 9e 27 be 5a 61 f8 bd
       -0.08455696 0.04275549 -0.16369013 -0.12127943
000070 27 51 f0 bd 9c d4 c6 39 35 f7 e8 3d d9 0e 57 bd
       -0.117342286 0.0003792391 0.11375276 -0.052504394

bias f4 [2]
000000 e7 cc 27 3e 17 f0 4e 3e
       0.16386758 0.20208775

weight f4 [1, 16]
000000 6c e3 98 3d f2 5d 08 be 00 ec 8b bd 0a 7e d3 3d
       0.07465252 -0.13317087 -0.06832123 0.103267744
000010 0d d5 a6 3c e0 ef 10 bd bf 7a 36 bb 25 e8 d5 bd
       0.020365262 -0.035385013 -0.0027844158 -0.10444669
000020 02 dc 63 bc 71 3a 32 be fb 2f 9c 3d 10 a3 c9 bc
       -0.013907434 -0.17405106 0.07626339 -0.024613887
000030 e8 00 50 3d 58 30 e9 3d 02 db b0 3d f8 07 b4 bd
       0.050782114 0.11386174 0.086355224 -0.087905824
